deep-learning/cnn-cifar10/cifar_net.pth (torch, 251732 bytes, 10 tensors)

conv1.weight f4 [6, 3, 5, 5]
000000 bf c8 cd 3d a3 86 3c 3e a3 2d 4d 3e 36 6b cf 3e
       0.10048055 0.18410735 0.2003694 0.40511483
000010 ee e6 c3 3e 0b c4 77 3e 84 c2 1b 3e 16 b0 64 3e
       0.38262123 0.24195878 0.1521092 0.22332796
000020 ce b6 32 3e ab 30 8b 3e 2c 31 3d 3e 02 9e 77 3e
       0.17452547 0.27185568 0.18475789 0.24181369
000030 89 91 6e ba e0 50 22 bb 62 42 4f 3e 81 65 d9 3b
       -0.0009100666 -0.0024767444 0.20240167 0.0066344147
000040 24 56 0d 3d 21 83 14 3d e5 5d 47 be 05 ca 86 3c
       0.03450598 0.036257867 -0.19469412 0.016453752
000050 d6 e0 42 3d d5 f7 cf 3d a3 39 1b 3d c0 3b 64 be
       0.0475777 0.10154692 0.037896764 -0.22288418
000060 3b 56 e1 bd df 1f b3 be c6 3e a7 be a8 6a cb be
       -0.11002775 -0.34985253 -0.3266508 -0.3972981
000070 b0 b2 3c be ab ac a4 bd cf 1d 4a be e7 75 08 be
       -0.18427539 -0.08040746 -0.19737934 -0.13326226
000080 d7 4e ea be 65 e3 bc be 35 ee e4 bd 13 99 f6 3d
       -0.45763275 -0.36892238 -0.11178247 0.12040915
000090 34 b1 f9 bd 83 47 a6 be 92 71 dd be af 6a 56 be
       -0.12192002 -0.32476434 -0.4325071 -0.20939134
0000a0 c6 80 ea 3d 01 f0 07 3e ac f5 d6 bd a6 a4 af be
       0.11450343 0.13275148 -0.10496077 -0.34305304
0000b0 47 2a 56 be 66 aa 61 3e fc 9c 52 3c 76 56 49 3d
       -0.20914565 0.22037658 0.012854811 0.04915472
0000c0 9e e1 54 be 8a cc 83 be 68 f3 e6 3d 71 39 bc bd
       -0.20789191 -0.25741988 0.11276895 -0.091906436
0000d0 0a 40 18 bc 1c d5 e8 bd 9e 24 16 3e 6b 8b 46 3e
       -0.009292612 -0.113687724 0.14662406 0.19389121
0000e0 45 6f b8 bc 86 ef 89 be 29 ef 10 be 9f 62 9b 3d
       -0.022513995 -0.26940554 -0.14153732 0.0758717
0000f0 01 61 5a 3e e9 f3 1c 3e 22 dc 60 bd 8f 69 5c be
       0.21326067 0.1532742 -0.054897435 -0.21524642
000100 0a b1 d1 bc c9 89 94 3e ea ee 55 3e a9 23 f1 3c
       -0.025597114 0.29011372 0.2089192 0.02943595
000110 68 67 0b be d8 c3 c6 bd 32 57 c7 3e 51 ed ca 3e
       -0.13613665 -0.09705323 0.38933712 0.39634183
000120 ad c1 67 3e a9 67 f9 bd 61 f2 92 bc fc 30 27 be
       0.22632475 -0.12177975 -0.01793784 -0.1632728
000130 94 05 83 3e 25 0e d0 3e 4f 96 8d 3e 29 9f 84 3e
       0.25590193 0.4063579 0.2765374 0.2590268
000140 c0 35 9b be ba 52 d0 bd fe d2 cf bd 41 5a 1d 3e
       -0.30314445 -0.10172029 -0.101476654 0.1536646
000150 d7 45 28 3e 2b 80 50 be 40 5e 6c be c6 44 a1 be
       0.16432892 -0.20361392 -0.23082829 -0.31497782
000160 10 bf 60 be 86 b4 0a be 6b 65 8f be 3b 02 fb bd
       -0.21947885 -0.13545427 -0.28007063 -0.12256285
000170 be ab 49 be b9 33 76 bd 78 21 a0 bd 74 8f e9 bd
       -0.1969442 -0.06010792 -0.07818884 -0.11404315
000180 82 1d c2 bd ca 56 c6 bd 05 93 c2 bd 27 0d 69 3d
       -0.094782844 -0.096845224 -0.09500698 0.05689731
000190 e3 b3 6e be 7e 10 a4 3c bd bd 2c 3c be a4 11 3e
       -0.23310809 0.020027395 0.010543284 0.14223
0001a0 70 83 9d bd 4b 3e 96 be 4e 2d 97 be ed 7d 07 be
       -0.07691085 -0.293444 -0.29526752 -0.1323163
0001b0 41 25 ff bc 17 33 f3 3c be 39 0c be 03 a0 9f be
       -0.031145694 0.029687447 -0.13693902 -0.31176767
0001c0 da af 86 be a9 d5 96 be 1d 2d 52 be d6 36 1a 3d
       -0.2630604 -0.29459885 -0.20525022 0.037649952
0001d0 76 15 0a bd 62 18 f1 bd 04 12 0a be 46 b1 06 be
       -0.033711873 -0.11772229 -0.13483435 -0.13153562
0001e0 c6 9f 4a 3e 34 33 84 3e 4b f2 07 3e da 75 95 3d
       0.19787511 0.25820315 0.13276021 0.07297869
0001f0 30 4c 72 bd 99 50 ba bc cb 83 f8 3d c2 81 ec bc
       -0.05915469 -0.02274351 0.121345125 -0.028870467
000200 0b 6f d1 bc d0 8a 45 3c 6f 93 d2 3b 84 55 c7 bd
       -0.025565645 0.012057021 0.006426267 -0.09733108
000210 ec 59 c5 bd a1 46 a8 3b b0 05 89 bd da 05 53 3d
       -0.09636292 0.0051353727 -0.06690538 0.051519252
000220 1d bf 1f bd 59 23 76 3c b7 fd 22 be f9 9c ce 3c
       -0.03900062 0.015023076 -0.15917097 0.025221335
000230 47 17 87 3e a4 b0 4e 3e bc f8 32 3e d8 28 c5 3d
       0.26384947 0.2018457 0.17477697 0.09626931
000240 6b 34 e3 bc dc 13 9e 3e ff d6 87 3e 86 db 8c 3e
       -0.027734956 0.30874527 0.26531217 0.27511233
000250 02 bd 3d 3e 49 89 6a bd a2 88 26 3d dc 90 01 bc
       0.18529132 -0.05725983 0.040657647 -0.007908072
000260 b8 5b 48 3c 0f 40 0c bd 8e 6c a1 3c fc 5a 75 3e
       0.012228899 -0.03424078 0.019705083 0.23960489
000270 27 b1 21 be 87 02 b8 bd 92 ae 9d bc dc fb 03 3d
       -0.15790235 -0.08984857 -0.01924828 0.032222614
000280 77 75 19 3e 4d 10 1a bf 62 a7 1e be a1 1c b0 3e
       0.14986216 -0.60181123 -0.15493539 0.34396842
000290 e8 4c 1a be ca 98 43 be a6 68 17 bf e3 82 45 3e
       -0.150684 -0.19101253 -0.59144056 0.1928821
0002a0 bd 21 05 3f 1d ac 6b be 39 db af be 40 9b f0 bd
       0.52004606 -0.23014875 -0.3434694 -0.117483616
0002b0 1d 40 58 3e e1 80 09 3e 13 cd f6 bd a8 8e 56 3d
       0.21118207 0.1342807 -0.120508336 0.05238214
0002c0 07 54 24 3d ad 4c d8 bb d5 2b 21 be 71 a5 60 3d
       0.040119197 -0.0066009373 -0.15739377 0.054845277
0002d0 47 93 a6 3e 2a 68 91 be b3 c9 0d bd 22 99 4a 3c
       0.3253424 -0.28399783 -0.034616183 0.012365611
0002e0 6c 3d ca 3d ca f6 ba 3e e8 6b 0e bf 17 50 d2 bc
       0.098749965 0.3651641 -0.556334 -0.025672955
0002f0 5c ac fb 3e 19 11 d8 bd 4d d5 ea bd 71 8a d4 be
       0.49154937 -0.10550136 -0.11466465 -0.41511872
000300 46 42 8e 3e 48 47 e8 3e a2 6f 13 be 04 c0 3f be
       0.27784938 0.45366883 -0.14398053 -0.18725592
000310 7d 33 bc bd c7 af a3 3e 6b cd 58 3e 68 c5 cc bc
       -0.09189508 0.31970045 0.2117211 -0.024996474
000320 b0 1e e2 bd 3b bc d7 bd 10 a6 f5 3b c2 a1 50 be
       -0.110410094 -0.10533949 0.007496603 -0.20374206
000330 c7 0d be bd 49 b2 3c 3e 63 c6 a3 be 5b 3f 61 bd
       -0.092799716 0.18427385 -0.31987295 -0.05499206
000340 e9 48 d6 3c 78 dc e7 3c ff da ab 3e 56 85 11 bf
       0.026157813 0.02830337 0.33565518 -0.5684408
000350 d6 e2 f4 bd 02 c2 bb 3e 64 f0 95 bd f2 be bb bd
       -0.11957328 0.36671454 -0.073212415 -0.09167279
000360 0e a0 fd be 6e d4 93 3e 9a 4d 00 3f b4 a1 17 be
       -0.49536175 0.28873008 0.5011841 -0.14807779
000370 be c2 4b be ca 0d 2e bd cc fa 9c 3e 0d 87 3e 3e
       -0.19898507 -0.04249362 0.30660093 0.18606205
000380 94 e3 99 bb c1 85 2e be eb 93 de bd a0 62 0d be
       -0.004696319 -0.1704321 -0.10868057 -0.13807154
000390 36 54 fb bd d0 cb 91 bd 43 e5 3a be ae 92 4a be
       -0.12271921 -0.07118952 -0.18251519 -0.19782516
0003a0 f9 d6 0b be da db 68 bd 5b 55 bb bc 85 af 85 be
       -0.13656224 -0.05685029 -0.02286785 -0.26110473
0003b0 43 ae a7 be f2 1c 89 be 79 fb 89 be 09 d7 66 be
       -0.3275014 -0.26779896 -0.2694967 -0.22542967
0003c0 65 ba 33 bd 3d ee f5 bd b6 fb 28 bb 87 ec f1 bd
       -0.04387893 -0.12008331 -0.0025784797 -0.11812692
0003d0 ab 24 57 bd 59 f5 41 3d ac c8 e6 bd a0 39 83 bd
       -0.052525204 0.047353122 -0.11268744 -0.064074755
0003e0 90 03 69 3d b2 67 54 3d 8b d1 af 3d ce 74 3b bc
       0.056888163 0.051856704 0.08584889 -0.011441423
0003f0 58 ca 92 3d 14 17 01 3c 9b 35 14 3d c7 5d f8 bd
       0.071675 0.007879037 0.036183935 -0.121272616

conv1.bias f4 [6]
000000 6c 74 97 be 84 ea e3 be 82 98 9a bc 50 df d7 3e
       -0.2958101 -0.4451486 -0.01887155 0.4216256
000010 38 a5 d3 be 0d ad b3 be
       -0.4133699 -0.35092965

conv2.weight f4 [16, 6, 5, 5]
000000 7f b6 71 3e bc 9b 8c 3d 77 23 5e 3c fb 25 cb 3d
       0.23604773 0.068656415 0.01355826 0.099193536
000010 06 2b 8c 3d b9 cf 35 3e 5a 9d 84 bd 68 e9 39 bc
       0.068441436 0.17755021 -0.06475325 -0.011347152
000020 ff ef 12 3e 17 67 c4 3d 8b c6 3e 3e 91 4a d9 bd
       0.14349364 0.09589975 0.18630426 -0.106099255
000030 4e 89 bd 3d c8 64 4c 3d d0 da 98 bd 48 a0 8c bc
       0.092547044 0.0499008 -0.0746361 -0.017166272
000040 04 4f b3 bd fa b8 09 3d f2 f8 84 3d f0 99 ce bd
       -0.087553054 0.033623673 0.06492795 -0.10087955
000050 25 bc 4b bd 31 d9 bc bd 34 c6 1b be a8 a3 f5 bd
       -0.049739975 -0.092211135 -0.15212327 -0.119941056
000060 c2 d3 0f be df cb a5 3c 3d 7c 45 bd 6e 04 89 3d
       -0.14045623 0.020238815 -0.048214186 0.06690298
000070 7f 18 88 3c 37 87 38 bd 05 2e 9a bd 21 20 40 3d
       0.016613243 -0.045050826 -0.07528309 0.04690564
000080 42 5d 22 3d 56 68 3e bd 7e 92 86 bc 50 65 b7 bd
       0.03963972 -0.04648622 -0.016427275 -0.08954871
000090 b8 b6 55 3d 3f a3 96 bc d7 04 b5 bd 59 74 07 bc
       0.052176207 -0.018388389 -0.08838814 -0.008267486
0000a0 20 37 e3 bd 98 52 fd 3c 26 c2 e5 3d ec 6b 5c 3d
       -0.11094499 0.030923173 0.112186715 0.05381386
0000b0 5b 0b f7 bb 7b 62 9b bb 93 59 db 3d 32 09 1a 3e
       -0.0075391955 -0.0047419644 0.10710444 0.1504257
0000c0 7f 66 21 bd 97 4d 94 3b 71 30 ef 3d 79 3a 81 3e
       -0.03940439 0.004525851 0.11679161 0.25239924
0000d0 07 af 30 3e 51 33 5d 3e 0e 80 c4 bd 89 14 ad bd
       0.17254268 0.21601607 -0.09594737 -0.084511824
0000e0 44 89 33 3e 6d 8e 04 3e ff 0e ba 3d 02 68 22 3e
       0.17532831 0.12944956 0.090848915 0.15859988
0000f0 58 0d 62 be 39 ff 85 3e d2 34 97 3d bf cc 9c 3d
       -0.22075403 0.26171282 0.073831216 0.0765624
000100 8f 4c 9f 3e c7 9f 72 be 17 61 31 bc 24 f4 1e 3c
       0.31113097 -0.23693763 -0.010826371 0.009701762
000110 94 71 a2 bc 44 b3 c1 bc 29 9d c1 be f5 90 93 be
       -0.019829549 -0.02364505 -0.37815216 -0.2882153
000120 12 d2 73 be e0 d2 47 be 94 8d a8 bd 25 5d 75 3d
       -0.23810604 -0.19514036 -0.08230129 0.059903283
000130 98 02 54 3d fd d2 fb 3c b7 39 52 3e dd 3b 93 bc
       0.051760286 0.030740255 0.20529829 -0.017972881
000140 36 e0 c2 3d 8f 24 91 3d 32 a5 8e 3c d9 cd 95 bd
       0.09515421 0.07087051 0.017412756 -0.07314653
000150 f1 05 61 bd 8d 34 a0 3c 3c bd ca 3d 8f 6c 67 3c
       -0.054937307 0.019556308 0.09899375 0.0141250035
000160 ec 4d c2 bd a2 0b 52 be 2e 2e 21 3e 7d 2e 98 3d
       -0.09487519 -0.2051225 0.15740272 0.07430742
000170 a5 d4 50 3d e8 39 07 be bd b4 41 be bd 7a fe 3d
       0.050984044 -0.13205683 -0.18916602 0.12425754
000180 da 26 cd 3c 04 4b 54 bd 51 5e 47 be ae 8e 24 be
       0.02504294 -0.051829353 -0.19469573 -0.16070053
000190 d8 61 94 3d 64 3d 25 bd b4 1d b5 bb d6 59 dc bd
       0.07245225 -0.04034175 -0.0055272225 -0.10759322
0001a0 35 45 9d bc dd 88 e8 bb f9 2a 37 be 02 92 65 be
       -0.01919804 -0.0070963935 -0.17887487 -0.22418979
0001b0 69 f8 a2 bd b8 15 a5 bd bb 38 00 3d 86 cd a9 bc
       -0.07957537 -0.08060783 0.031304102 -0.020727884
0001c0 c6 8d d5 bd 2e e4 cb bc 7f f8 40 3d a4 7d bf bd
       -0.10427432 -0.024889078 0.047111984 -0.09350136
0001d0 b6 31 c5 3d 25 e3 b2 3c f8 db 16 3e 63 8f 35 3e
       0.09628622 0.021836827 0.14732349 0.17730479
0001e0 fd b7 93 bd ed 8b b0 3d 90 88 14 3e 9a 90 01 3e
       -0.07212827 0.08620439 0.1450522 0.12652817
0001f0 d1 4c 27 3e 13 4a 82 3d 4a 16 ab 3c fd d2 87 bd
       0.16337897 0.06361785 0.020884652 -0.0663204
000200 0c 02 92 bb ad 1e ae 3d 36 67 57 3d c3 46 e8 bd
       -0.0044558104 0.08501945 0.052588664 -0.11341622
000210 e7 34 b1 bd 8e 47 27 bd 65 fc 27 3c db 06 fc bc
       -0.086526684 -0.040839724 0.010253047 -0.030764988
000220 2b 16 f4 bd fe 38 c6 3d cd cf 8f bc ae fa c1 bc
       -0.11918291 0.09678839 -0.017555142 -0.023679104
000230 c8 0d ca bd 53 03 c2 bc 3b d7 ff 3c be 39 b0 bc
       -0.0986591 -0.023683226 0.03123056 -0.021511909
000240 29 4f e1 bd 45 ac 68 be bc d0 70 be 4a 9d c8 bd
       -0.11001427 -0.22721966 -0.23517126 -0.097956255
000250 49 a3 25 be 21 4c 68 be 85 82 e0 bd b3 9b 54 be
       -0.1617557 -0.22685291 -0.109623946 -0.2076252
000260 97 19 0a be bf 60 4f be b5 9e 26 be ec ff af bd
       -0.13486324 -0.2025175 -0.1627148 -0.08593735
000270 62 6c a3 bd 1c 1a 9a bd a1 b6 a2 bc 42 8b c9 bd
       -0.07979657 -0.07524511 -0.019862475 -0.098410144
000280 2f 20 23 3e 5f 98 25 3e 39 10 1e 3e 49 34 e1 3d
       0.15930246 0.16171406 0.15435876 0.10996301
000290 76 13 1a 3e 61 9e f1 bc 23 23 07 bc ad 81 06 3e
       0.15046486 -0.029494466 -0.008248123 0.13135405
0002a0 96 2c 38 3e a3 aa 32 3e cc 6f 8a be 63 be e5 bd
       0.17985758 0.17447905 -0.2703842 -0.11217954
0002b0 6d a9 4e be be 26 59 b9 fa 73 c4 3c 13 62 ba 3d
       -0.20181818 -0.00020709165 0.023981083 0.091007374
0002c0 ee 57 20 3d 63 79 e4 3c 34 11 8c bd 38 1c a6 bd
       0.039146356 0.027889913 -0.06839219 -0.08110851
0002d0 05 d2 91 bd 0b 38 8d bd 35 dc 9a bc d4 57 e8 bd
       -0.07120136 -0.06895455 -0.018903831 -0.11344877
0002e0 df 39 36 be a4 f2 5c 3d 51 fb 1b bd b2 6c e3 bc
       -0.17795514 0.053942338 -0.03808147 -0.02776179
0002f0 f1 2e 8d bd 6c 3d c3 3c f7 48 fc 3d fc f9 d8 3c
       -0.06893719 0.023833 0.123186044 0.02648639
000300 de 2d cd 3d 52 ba 28 3d 40 c2 64 3c 10 34 ca 3c
       0.10018514 0.041193314 0.013962328 0.024683028
000310 07 7b 8b bc 4b 78 f5 bd c9 27 1b 3c 29 41 69 bd
       -0.017026437 -0.11985835 0.009469935 -0.056946907
000320 77 2f d1 be 2a c7 a4 be 71 dc 6e be 82 1e 6f be
       -0.40856525 -0.321832 -0.23326279 -0.23351482
000330 92 f5 34 be c7 2f 8c be e0 dd a4 be f2 88 a1 be
       -0.17671803 -0.273802 -0.32200527 -0.31549793
000340 4e a0 5e be 29 22 cf bd e3 f1 c1 bd 93 06 8c be
       -0.21740839 -0.101139374 -0.09469964 -0.27348766
000350 a8 8c 4f be 46 ad 3c be 9c d0 dd bd 37 d6 67 bc
       -0.202685 -0.18425474 -0.10830805 -0.014150194
000360 80 79 98 bd 69 60 b1 bd c8 4b a9 bd f8 74 09 3d
       -0.07445049 -0.08660967 -0.08266407 0.033558816
000370 f9 24 87 3d b3 71 f6 bc e0 89 1d 3e 8e b6 dc bc
       0.06598849 -0.030083513 0.15384626 -0.026942518
000380 2e 3a 84 3d b5 af 62 3d 2f 01 93 3c 1d 68 16 3e
       0.064564094 0.05534335 0.0179449 0.14688154
000390 f1 83 16 3e 52 25 23 3e 87 74 aa 3d 32 d3 2b 3d
       0.14698769 0.15932205 0.08323007 0.04194946
0003a0 c1 0d 0e 3d 13 a2 70 3b 3a bb cb bc 29 f1 5a bd
       0.034681085 0.0036717698 -0.02486955 -0.053452644
0003b0 50 48 2c be 0f 06 e2 bd 71 cc 0d be 43 7f ee bb
       -0.1682446 -0.11036312 -0.1384752 -0.0072783544
0003c0 a0 25 dc bb 67 b5 df bd 22 fd 1c 3c 3f 66 8e bd
       -0.0067183524 -0.109232716 0.009581836 -0.06953096
0003d0 51 73 f5 3c 4f 86 04 3e 22 87 9c 3b de 85 a2 3d
       0.029962214 0.1294186 0.0047768513 0.079356894
0003e0 0c b6 bd 3d 4c 81 5c 3e a5 65 d4 bd 0f a4 bd bd
       0.09263238 0.21533698 -0.1037095 -0.09259807
0003f0 54 aa d8 bd 2d fd 83 bd 64 c4 33 3d 8f 84 36 3d
       -0.105793625 -0.06444774 0.043888465 0.04456001

conv2.bias f4 [16]
000000 55 30 cc be 87 4e 9e 3e 31 e5 15 bf 21 19 9c 3e
       -0.39880624 0.30919287 -0.58552843 0.30487922
000010 89 c6 d6 bc 86 89 6c be 12 2e 91 be ac 26 b3 bd
       -0.026217716 -0.23099336 -0.2835546 -0.087476104
000020 c7 c1 14 3f fb 3a b2 3e ab 47 6e 3f 17 44 4a 3e
       0.5810818 0.34810624 0.93078107 0.19752537
000030 8b 9c 11 be e6 69 14 3d b2 14 9b bd 05 c0 eb be
       -0.14219873 0.036233805 -0.07572307 -0.46044937

fc1.weight f4 [120, 400]
000000 d8 67 9f 3c dd d6 10 bd ca f0 34 bd 42 45 bb 3a
       0.019458696 -0.03536116 -0.044174947 0.0014287608
000010 e0 dc 23 3c 04 ea 9b 3d 95 b1 16 3d f9 bf 94 bc
       0.010001391 0.07612994 0.03679045 -0.018157946
000020 35 11 f6 3c ae 69 79 3d 0e 8f 58 bb 8e bd 7e 3d
       0.030037502 0.0608918 -0.0033044252 0.062192492
000030 82 2f be 3c bd e5 3d bc e0 15 03 3d dd c4 a2 3b
       0.023216013 -0.011590418 0.032003284 0.0049673156
000040 7b 43 c9 bb ee a6 c4 bc e7 73 88 3b 2d d4 64 bc
       -0.0061420775 -0.02400538 0.0041642073 -0.013966602
000050 ad 56 68 bd 5a 95 05 bd 64 64 48 3d 5b 09 21 3d
       -0.056723285 -0.032613136 0.048923865 0.039315563
000060 c5 99 3b bc 59 c4 0e 3c f7 9a c4 3c b1 56 83 bc
       -0.011450236 0.008713805 0.023999674 -0.016032549
000070 03 dc 20 3d 86 50 17 bc fa 48 1b 3d 4d a4 0f bc
       0.03927232 -0.009235507 0.037911393 -0.0087672
000080 b5 28 94 3c 8f 27 90 bd 93 0b 9b 39 d3 42 89 3d
       0.018085817 -0.07038795 0.00029572527 0.06702199
000090 94 06 1b 3d 86 bd 1e bc bd 41 9a bc 1d b3 d2 3c
       0.03784807 -0.009688741 -0.018830175 0.025720173
0000a0 27 0a 1a 3d 1c bf de bc b1 d2 29 bd 43 a3 84 bd
       0.03760734 -0.027190737 -0.041460697 -0.06476452
0000b0 34 dc 15 3d 5c c8 5d 3d 93 30 84 3d a1 d6 1d bd
       0.036586955 0.054146156 0.06454577 -0.038534764
0000c0 06 28 70 bd 4d 5e 59 bc d6 9e 17 3d 6a 30 8a 3d
       -0.05863192 -0.013267112 0.037016712 0.067475155
0000d0 33 74 fe bc 86 ef e3 bc f7 eb 6c bd 1c 02 dc bc
       -0.031061267 -0.027824175 -0.05784222 -0.026856475
0000e0 2d 79 4a 3d 16 de 4a bd 85 fb 87 bc 7a 18 ad 3c
       0.04943197 -0.049528204 -0.016599426 0.021129835
0000f0 ae ae 72 bc 1d b0 91 ba f0 61 ea bc b2 b2 84 bd
       -0.014812155 -0.0011115108 -0.028611153 -0.06479396
000100 a3 ab 6a bd 15 98 17 bd 8e 38 30 3d 2f 47 23 bd
       -0.05729259 -0.03701027 0.043022685 -0.039862808
000110 b2 a6 15 bd 12 ae 22 bd 32 ba 25 bb d2 c8 bd bb
       -0.036535926 -0.039716788 -0.0025287983 -0.005791762
000120 44 d3 f4 3c 41 0f 22 bd 37 1b 80 bd 01 bc 2a 3c
       0.029885896 -0.03956533 -0.06255191 0.0104208
000130 13 1f d4 39 29 f1 58 bd 46 fa 9d bc 59 5b 78 bc
       0.00040458943 -0.052964363 -0.019284379 -0.015158498
000140 15 ff 11 3d b4 10 bc 3c 8d b2 17 3c 12 c4 59 3d
       0.035643656 0.022957183 0.009258878 0.053165503
000150 88 02 13 bc 16 7c 07 bd 38 2d 55 3d 58 a6 91 3c
       -0.0089727715 -0.033077322 0.052045077 0.017779514
000160 6d ff ec 3c 23 f2 35 3d a7 2d ad 3b b6 7c 15 3d
       0.02893039 0.044420373 0.005284983 0.036495887
000170 88 dc 14 3c 87 d5 95 3d 6f 9a 7a 3c b8 ba 7d bd
       0.009085782 0.07316118 0.015295609 -0.061945647
000180 bc b2 0a 3d 1d fc 90 3d a5 81 d8 3c de 46 c9 3d
       0.03386186 0.07079337 0.026429007 0.0982797
000190 54 ac af 3a bd e3 4a bd 5c 3e 1c bd 9d a0 e7 bc
       0.0013402798 -0.049533594 -0.038145408 -0.028274829
0001a0 ce c8 3f 3d f4 18 52 3b ee ef 73 3c 08 34 f0 3c
       0.04682236 0.003205833 0.014888747 0.029321685
0001b0 96 2d dd 3b 78 8b 7a 3c a5 74 9c bc 65 e6 4a bd
       0.006749819 0.015292041 -0.01909859 -0.049536128
0001c0 38 4c bb 3c 13 e0 6e bc 16 20 49 3d 68 74 00 bd
       0.022863492 -0.014579791 0.049102865 -0.031361014
0001d0 d1 84 d6 3c cd 29 bc 3c 76 e4 ae bb 49 57 07 3d
       0.026186379 0.02296915 -0.0053372933 0.033042226
0001e0 18 79 03 3d 7f 85 2a bd 6c e3 c3 3c e5 e9 d7 bb
       0.032097906 -0.041631218 0.023912154 -0.0065891617
0001f0 86 07 9a bc 3d bc 02 3d 38 e7 68 3c e8 7d 33 3c
       -0.018802416 0.0319178 0.014215283 0.010955311
000200 1e dc 60 3c ef 69 26 bd d1 4c a0 bb b2 8d 18 bd
       0.013724355 -0.04062837 -0.0048919697 -0.037244506
000210 08 b6 2a bb e4 98 10 3d 2a 6e 77 3c a5 da 5b bd
       -0.002604844 0.035302058 0.015101949 -0.053675313
000220 73 2c ab bc 91 03 5e bd 2b e0 35 bd d7 41 2b 3d
       -0.020895218 -0.05420262 -0.044403236 0.041810837
000230 c8 3e 2c bd 5d df 4c bc 7e df c4 bc 99 fb 52 bd
       -0.04205206 -0.012504426 -0.02403235 -0.051509473
000240 1f a1 13 3d 94 8e 47 bd 11 8b 8c bd 67 a0 4f bd
       0.03604233 -0.048719957 -0.06862462 -0.05069008
000250 70 f7 f2 bc 14 a0 3c 3d 68 9a 88 bc 9d 5a 33 bd
       -0.029659003 0.0460511 -0.01667519 -0.043787587
000260 38 e9 75 3d c9 34 9d 3c a0 3a 94 3c de c7 a6 bd
       0.060036868 0.019190209 0.01809436 -0.081435904
000270 59 3f 25 bc bd 8b 64 3d a7 b7 42 3d 86 80 6c 3d
       -0.010085904 0.055797327 0.047538426 0.057739757
000280 ad 97 8f 3c 88 70 0e bc 88 9a 05 bc 73 47 39 3c
       0.01752838 -0.008693822 -0.008154519 0.011308539
000290 70 70 a3 3d 2d 20 15 3d a6 15 22 3d 16 65 37 3c
       0.0798043 0.03640764 0.039571427 0.011193534
0002a0 80 6b 1c bd e4 35 a4 bc 15 7e ab 3d 9d ac c6 3c
       -0.038188457 -0.020045228 0.083736576 0.02425223
0002b0 9a 85 88 bc 24 49 c0 3c e6 10 ad bc ce 59 c9 bc
       -0.016665269 0.023472376 -0.021126222 -0.024578955
0002c0 fb 96 2a bb 4f 83 37 3a 92 e4 78 bc da fd 25 bd
       -0.0026029933 0.00070004625 -0.015191214 -0.040525295
0002d0 f0 ce 0f 3d 5d b5 ee 3b 0c 25 ac bd f4 fd 68 bd
       0.03510946 0.007284804 -0.08405504 -0.056882814
0002e0 c0 12 85 bd 7f bc 3b 3d 81 d5 95 3c 17 4b 79 bd
       -0.06497717 0.04583406 0.018290283 -0.060862627
0002f0 65 ca ab bd d9 6e 03 ba f4 2e ab bc a3 43 d6 bb
       -0.08388213 -0.0005013771 -0.020896412 -0.0065388246
000300 56 43 0b bc d3 eb 2b 3c ec 3c c1 bd 1d 0a 5d 3c
       -0.008499941 0.010493237 -0.09435448 0.013491181
000310 c7 36 d5 bc eb 24 4f bd 56 49 92 bc 0e 8a b4 bd
       -0.026027096 -0.050572317 -0.017857235 -0.08815394
000320 ea c3 38 bd 95 df 17 bc 21 9b 93 bc af 33 e1 bc
       -0.045108713 -0.009269615 -0.018018307 -0.027490465
000330 e4 59 99 bc 84 c6 3c bd 40 e4 3b bd 1f c5 04 bb
       -0.018719621 -0.046087757 -0.045871973 -0.0020259095
000340 cc cf f1 bc cd b0 a2 bd f9 bf a2 bd 35 a5 39 bd
       -0.02951803 -0.07943878 -0.07946772 -0.04532357
000350 1f 9c 61 bd 04 01 a2 bb 45 c6 12 3c 2e 07 a5 bd
       -0.05508053 -0.0049439687 0.008958404 -0.0805801
000360 16 74 12 bc 29 29 91 3c 8e 0a 4d 3b bf 89 86 bd
       -0.00893881 0.017719822 0.0031286809 -0.06569242
000370 db 8b 83 bb 85 45 39 ba 95 17 f0 bc 7c 22 19 bd
       -0.004014475 -0.0007067549 -0.02930812 -0.037386402
000380 e6 c9 2b 3c 9a f3 62 bd 41 ab 56 bd 82 c6 13 bd
       0.010485148 -0.055408098 -0.052409414 -0.036077984
000390 a3 0f 72 3c 51 e6 94 bc 71 df 32 bd a8 cc 3d bd
       0.014774236 -0.01817623 -0.04367012 -0.046337754
0003a0 0c 62 98 bd bf bd 30 bd 82 70 45 bd be 65 8c bc
       -0.07440576 -0.043149706 -0.048203 -0.017138358
0003b0 48 4e 8b bc 2c 2f 57 bd f3 8e 19 bd 23 19 6e bb
       -0.0170051 -0.05253522 -0.037489843 -0.00363309
0003c0 85 a2 80 bd a1 a9 b1 3a 97 8e 77 bd 0b fe 38 3b
       -0.06280998 0.0013554582 -0.06043872 0.0028227593
0003d0 1d de 51 bb ce fa f6 bc 70 38 c3 3c 76 d4 ed bc
       -0.003202326 -0.03014889 0.023830622 -0.029031973
0003e0 82 f2 7e bd 97 af d3 bc 06 86 bc bd fd 99 56 bd
       -0.062242992 -0.025840564 -0.092052504 -0.05239295
0003f0 a1 f0 12 bd 33 b9 62 3c ef 0b 60 3c 67 3b 60 bd
       -0.035874013 0.0138381 0.01367472 -0.05474415

fc1.bias f4 [120]
000000 7b 51 0a 3c 0e c3 c7 bc ae fc 7f 3d 64 aa da bd
       0.008442278 -0.024385002 0.062496834 -0.10677031
000010 43 c0 be 3d f3 98 b8 3b a7 17 b4 3d 8e dc 3a bd
       0.09314015 0.0056334673 0.08793574 -0.045620494
000020 e8 f5 8c 3d 7f 7e db bc 3a 2e ae 3d fe 0b 02 bd
       0.068828404 -0.026793716 0.08504911 -0.031749718
000030 b3 49 8c 3a 00 8d c7 bd 18 2a 76 bd e4 dc 5b bd
       0.0010703116 -0.097436905 -0.060098737 -0.053677455
000040 44 99 70 3e 1c d5 b7 bc b8 8d 40 3e 56 63 16 bc
       0.23495966 -0.022440486 0.18804061 -0.009178957
000050 c4 fe 18 3d 2b c7 42 3d ce ad a8 3c a0 7e 6a bd
       0.03735234 0.047553223 0.020590689 -0.057249665
000060 c8 3c af 3d de 36 2c 3d d6 d2 be 3c 15 6c 71 bc
       0.08556515 0.042044513 0.023293894 -0.014735241
000070 44 c3 07 3e e4 02 bd 38 5e d5 41 3d ed 67 17 3d
       0.13258082 9.012761e-05 0.047322623 0.036964346
000080 92 c7 1b 3e 2c f8 fb 3d 69 ca 84 3e d1 cf 06 bc
       0.15212849 0.123031944 0.25935677 -0.008228258
000090 43 65 8a bd 38 42 06 3d 3d 9b da bc 96 a1 82 bc
       -0.067575954 0.032777995 -0.026685352 -0.01594619
0000a0 c9 3d 9e 3d 26 e1 cb 3d 5c f7 36 be c1 93 e1 bc
       0.07726628 0.09955053 -0.17867798 -0.027536275
0000b0 46 cf 41 3c e3 da 3b 3e b1 20 9b 3c 14 4e 0b bd
       0.011829203 0.18345217 0.018936487 -0.034010008
0000c0 f9 fe 20 3e 3b 40 96 bc 58 21 ee 3d ab ea 40 3d
       0.15722264 -0.018341174 0.116274536 0.047098797
0000d0 21 8a 74 3c bf 35 3f 3d 29 87 91 ba d8 81 11 3d
       0.014925511 0.046682116 -0.0011102903 0.03552422
0000e0 26 ed 1d 3e 90 e4 7e bd 4b 68 9e 3d 8e e7 d8 3d
       0.15422496 -0.062229693 0.07734736 0.105910406
0000f0 90 3e f0 bc cc 54 cf bd 11 0b 44 3e f4 a2 5d 3d
       -0.029326707 -0.101235956 0.19144846 0.054110482
000100 a5 f6 04 bc 0f 80 4f 3e 4f 9c 93 bc c8 a4 17 3e
       -0.008115445 0.20263694 -0.01801887 0.14808953
000110 6a b6 56 3d 39 46 2a bb 3a d3 61 3d 74 08 f2 3d
       0.052420057 -0.0025981797 0.055133082 0.118180186
000120 b1 f8 bf 3d a2 f9 a3 bd 7b 76 c0 3d ea 84 b0 3c
       0.09373606 -0.08006598 0.09397598 0.021547753
000130 57 87 e2 3b 28 fd c9 3c 44 3a c6 3c 5f 14 2a bd
       0.0069131064 0.024656847 0.024197705 -0.041523334
000140 43 9d f2 3c 0c 43 a2 bd 27 0c 8e bd 09 c5 ae 3d
       0.029616004 -0.079229444 -0.069359116 0.08533675
000150 14 ca 06 be 90 84 7e bd 67 fd db ba 6e 58 f1 3d
       -0.13163024 -0.06213814 -0.0016783894 0.11784445
000160 2a b4 0d 3d 12 b7 28 3d 38 6d a5 3c ee aa 5f bd
       0.034595646 0.041190214 0.020193681 -0.05460637
000170 02 c8 0e 3b 58 56 20 3d 5a 30 e6 3d 6d 5e d6 bd
       0.0021786694 0.039144844 0.11239691 -0.10467229
000180 f3 25 43 3d 6b 83 51 bd 78 d0 46 3c b3 a4 2d 3e
       0.047643613 -0.05115072 0.012134664 0.16957359
000190 c2 87 1c bd 00 57 b1 3d a5 59 af 3d 48 43 a4 3d
       -0.038215406 0.08659172 0.0856202 0.080206454
0001a0 ea 4b b8 bd ae df dc 3d db 6a 31 3e 0f 1c 1f 3d
       -0.089988545 0.10784851 0.17325918 0.038845118
0001b0 59 93 5f 3b 3f 7e a6 3d c9 53 1b 3d 7d bf 55 bc
       0.0034114926 0.08129548 0.0379217 -0.013046143
0001c0 0f c6 cd bd f2 bc 7e bd a3 af 3c bd 68 3f 3d bb
       -0.10047542 -0.06219191 -0.046065938 -0.0028876904
0001d0 6b fc 17 bc 83 d5 40 bd f0 9d d8 bc ff b2 4b bd
       -0.00927649 -0.04707862 -0.026442498 -0.04973125

fc2.weight f4 [84, 120]
000000 d7 ed c1 bc ef 37 1f bb 2f 34 a4 3d 23 58 c2 3c
       -0.023672981 -0.0024294814 0.08017766 0.023723667
000010 2e cd 83 bd fa 86 e4 3d b8 19 62 3d 43 c0 54 3c
       -0.06435619 0.11158557 0.05520031 0.012985292
000020 59 17 c2 3c aa 8c a1 bd 81 4d 1d 3d e9 f4 ec bc
       0.023692774 -0.07888158 0.03840399 -0.028925376
000030 7e ac 7a bc f4 80 aa bd ad 38 a6 3b 64 f4 97 3c
       -0.015299914 -0.08325377 0.0050726742 0.018549152
000040 e0 a9 b2 bd 81 39 58 3d f6 ca 9e bc 6b 33 b5 bd
       -0.08723807 0.052789215 -0.019383889 -0.08847698
000050 42 de 10 bd 2d cb 3c bd 52 b7 a8 3d b0 4f 0c be
       -0.03536821 -0.0460922 0.082380906 -0.13702273
000060 b7 6d 65 bd 1c 9a 99 3d 76 c8 9a bd ec 52 10 3b
       -0.056012835 0.07500097 -0.07557766 0.0022022082
000070 e0 59 5d 3d b3 62 a8 3d cf c5 90 3d 7b 27 e4 bc
       0.05404079 0.082219504 0.07068979 -0.027850857
000080 a0 8f 32 3d 63 8f 28 bc 4a cf 8b bd 91 12 b0 3d
       0.043594003 -0.010288092 -0.068266466 0.08597291
000090 90 e2 10 bd bb 3c 44 bc 1f 5e 19 bd 45 ef 87 3d
       -0.035372317 -0.01197737 -0.037443276 0.06637434
0000a0 02 e1 6a bc ec 68 b1 3d a1 74 67 bc 95 85 8c 3d
       -0.014335873 0.086625904 -0.014126928 0.06861416
0000b0 1e cd cd 3d b1 51 96 bc 05 64 53 3c 9a ef 9d bd
       0.100488886 -0.0183495 0.0129022645 -0.07711716
0000c0 e5 6c b2 bc 67 5a 57 bb 67 11 05 bd 24 0c ac 3d
       -0.02178044 -0.003286028 -0.0324873 0.08400753
0000d0 16 0c 89 bd db 39 b2 bc 89 08 6e bc 34 2b 8d 3d
       -0.06691758 -0.021756103 -0.014528402 0.06893006
0000e0 7d 61 b5 3d 7b ce 37 3d 7e 8e 9c 3d cf ab 0d 3b
       0.08856485 0.04487465 0.07644366 0.0021617298
0000f0 b2 e8 74 3c 2c 8a 9f bc 09 fb 82 3a 46 97 59 3d
       0.014948057 -0.019475065 0.0009993027 0.05312278
000100 ed ae 7b bd a3 bb ae bd c3 e7 d1 3d 22 9f b5 bd
       -0.06144612 -0.085318826 0.10249283 -0.08868243
000110 35 08 0f bd 1f 57 0b bc 73 e9 e7 bb 54 ec 4f bc
       -0.034919936 -0.008504658 -0.00707739 -0.012690622
000120 ff 5d c6 3b 63 fe 28 bd dd 9f d3 3c 77 70 7b bd
       0.0060536857 -0.041258227 0.025833065 -0.06138655
000130 44 69 f2 bd 8e 7d ea 3c 05 b9 62 3d 7b 61 85 bc
       -0.11836484 0.028624322 0.05535223 -0.016281834
000140 78 20 84 bd df 7c 8d bd 9d d7 bd bc 6f 0d 4a bd
       -0.064515054 -0.06908583 -0.023174101 -0.049329218
000150 c9 9a e6 3c 08 9e 57 bd 7c 13 96 bd 52 17 bf bc
       0.02814998 -0.052640945 -0.07327935 -0.02332655
000160 24 57 b8 3b 1d c7 8a bd ac 1c 9e 3d ff ba 29 3d
       0.0056256223 -0.06776259 0.077203125 0.0414381
000170 22 4b 8e 3d 60 de 7e 3d 8e b7 5c bc 1c 67 a1 bd
       0.06947924 0.062223792 -0.013471497 -0.07880995
000180 2a 82 10 3d 3b b1 49 3c fc e2 b8 3d 45 17 78 3d
       0.035280384 0.012310321 0.09027669 0.060569067
000190 ca 77 a1 3d e9 fd ba 3d a6 fd 16 bd ad 5b 8c bd
       0.07884176 0.09130461 -0.03686299 -0.06853423
0001a0 f6 5a 0c 3b 41 b1 5d 3d 3f 96 f6 3d 70 4d a1 3d
       0.0021416522 0.05412412 0.12040376 0.07876098
0001b0 34 a8 7e bd ed 0a 95 3c 9b cf 57 bd 2c 83 35 bd
       -0.06217213 0.018193686 -0.052688222 -0.04431455
0001c0 4e c7 49 bd 35 66 cd 3d 72 37 96 bd 6a 1e 6e bd
       -0.049262337 0.1002926 -0.07334794 -0.058134474
0001d0 1f a1 6a bc 25 54 9e bd ec 7f 25 3d 8c 92 e5 3d
       -0.014320641 -0.07730893 0.0404052 0.11209592
0001e0 2e 90 97 3c 13 c1 1e bd ab bd 96 3b 2e 6f 58 bd
       0.018501367 -0.03875835 0.004600247 -0.052840404
0001f0 16 84 2b bd 5c 9a 44 bd 67 18 a8 3d 85 70 6c bd
       -0.041874014 -0.04799877 0.082077794 -0.057724494
000200 5b e2 77 bd 3f 7e f5 bc e3 94 43 3d f4 fe 0f be
       -0.060518604 -0.029967425 0.04774941 -0.140621
000210 0e 3f 9c 3d 37 9d 7a bd 49 ef b3 3c ad fb a1 bd
       0.07629214 -0.061185088 0.021964686 -0.079093315
000220 05 ea 29 3e 51 1a 19 bd 14 fc 79 bd 07 c4 90 3d
       0.16593178 -0.037378613 -0.061031416 0.07068639
000230 25 18 0c be 6d a8 2f bc 3c 66 62 3d b6 cf 11 3e
       -0.13681085 -0.010721308 0.05527328 0.14239392
000240 fc 30 9f bd 4e c8 d2 bd c1 3f b5 3d 9e 68 a6 3d
       -0.07773015 -0.10292111 0.08850051 0.08125423
000250 e9 ad 77 39 d5 13 c0 bd 61 45 6b 3c fe 01 79 bd
       0.00023620542 -0.09378783 0.014359803 -0.060792916
000260 c3 cc 74 bc 8d c1 92 3d 6a 2d 26 3e 9b 4b b9 bd
       -0.014941397 0.07165823 0.16228262 -0.09047624
000270 92 26 91 bd 60 9e 28 bc 3d a7 5a 3d e3 80 f3 3d
       -0.07087435 -0.010291666 0.053382147 0.118898176
000280 96 2c 95 3d ff 6a 80 3d 0c 9e 44 3d da 4c a8 3d
       0.07283895 0.06270408 0.048002288 0.08217783
000290 b6 d4 37 bd 82 34 12 3d c0 f0 da bd 09 e6 93 bd
       -0.04488059 0.035694607 -0.10690451 -0.0722161
0002a0 3c 87 5d bd f0 db 49 3c fc 16 53 39 40 ea b1 3c
       -0.054084048 0.012320504 0.0002013109 0.021718144
0002b0 ed 5c 37 3d 7c 18 10 bd 5c 72 2a bd 89 b0 a2 3c
       0.044766355 -0.0351796 -0.041612968 0.01985957
0002c0 1d 79 c0 3d 5b c7 53 3c 44 22 3e bd 2c 52 a6 3d
       0.093981005 0.012925948 -0.046419397 0.08121142
0002d0 c7 3e 9f bd 49 5f 7c 3c e5 42 c4 3d ba 2a 76 bc
       -0.07775646 0.015403577 0.095830716 -0.015024835
0002e0 7b 00 43 3d f6 e1 95 3d e2 c3 d5 bc 6d 5e 25 3d
       0.04760788 0.07318489 -0.02609438 0.040373255
0002f0 bf 3a 19 3d 34 2d 15 3d f2 a5 38 3d be 5c d1 bc
       0.03740954 0.036420062 0.045080133 -0.025556918
000300 98 3f 20 3d df cc bc bd 60 00 ac bd 02 de b0 bb
       0.039123148 -0.092187636 -0.08398509 -0.005397559
000310 8c 78 7d 3d f0 cc 67 bd 62 f0 aa bd ae ae 96 3b
       0.06188254 -0.056591928 -0.08346631 0.00459846
000320 75 a9 b7 3d d8 15 db bd fe 77 91 bd a4 87 8b bc
       0.08967868 -0.10697526 -0.07102965 -0.017032452
000330 29 56 97 bc 03 34 04 be 9b f8 91 bd 8f 64 8b 3d
       -0.018473702 -0.12910466 -0.07127496 0.068062894
000340 c1 30 7d 3d 03 cd 0c 3c d6 e5 ff bc 87 50 0d be
       0.061814073 0.0085938005 -0.031237524 -0.1380025
000350 4f bc a5 bd 1f dd 29 bd ce ab 48 3c 47 a7 82 3d
       -0.08092558 -0.041470643 0.012247993 0.06379562
000360 3e 9c e9 bb 0c f7 46 bd 18 fe 70 bc 8e 86 09 3d
       -0.007129221 -0.048575446 -0.014709018 0.033575587
000370 0d 73 53 3d 2c 79 ff bd 5b 78 ab 3b 94 3c 3b 3d
       0.051623393 -0.124742836 0.0052328533 0.04571207
000380 1d e3 58 bc 6e 4b 49 bd 67 2d 7c bd 36 17 86 3d
       -0.013237742 -0.0491442 -0.061566737 0.06547396
000390 41 e7 87 bd a6 0e 08 3c c7 5b c7 ba a0 25 30 bd
       -0.06635905 0.008304274 -0.0015209847 -0.043004632
0003a0 22 73 85 bd d3 28 f1 bd 88 5c 01 3e b6 69 0e 3c
       -0.065161005 -0.11775365 0.12632954 0.008692196
0003b0 50 26 3b 3d 57 8c 45 bd d2 5e 93 3d 16 53 83 bd
       0.045690835 -0.04822954 0.0719582 -0.06412332
0003c0 b4 2e ad 3b cf 91 12 3c 82 17 62 3d 69 b0 22 3d
       0.0052851085 0.008945896 0.0551982 0.03971902
0003d0 c9 89 c7 bb 44 6d 27 3e 75 b0 d9 bd c9 6e 56 bd
       -0.0060894233 0.16350275 -0.1062936 -0.052351747
0003e0 5a 6f 88 3d 8b 8c 90 bd b0 a8 62 3c b8 4a ad bd
       0.066618636 -0.070580564 0.013834164 -0.08461517
0003f0 9b bf b5 3b b1 54 e7 bd 9a 48 a3 3c 0b 96 8c 3c
       0.005546523 -0.112954505 0.01993208 0.01716139

fc2.bias f4 [84]
000000 83 61 4b 3d 4c f0 2d 3e 06 bc 92 bd 4f 10 97 3b
       0.04965354 0.16986197 -0.07164769 0.0046100984
000010 d4 1d 6b 3d 7d 7e 29 3d 82 06 1c 3e d7 4f 77 3d
       0.057401493 0.041380394 0.15236858 0.060378876
000020 72 82 ee bd 82 ab 13 3e 87 cb a2 bc 36 e7 1c be
       -0.11645974 0.14420894 -0.01987244 -0.15322575
000030 7d 7e 4e 3d 70 2a 91 3c ba b5 a1 3d dc 09 38 3e
       0.050413597 0.017720431 0.0789599 0.17972511
000040 e1 40 18 bd f2 0b 28 bd 29 5a d1 bd f7 5b 57 3e
       -0.03717125 -0.041027017 -0.10222275 0.21031176
000050 d3 08 24 3e ab 58 c9 3d 34 a8 a3 3e 4b ca df 3d
       0.16018991 0.09831365 0.31964266 0.10927256
000060 e8 2e 0f bd f6 5d e3 bc 69 5c 33 3e a3 5c 46 3e
       -0.034956843 -0.027754765 0.1751572 0.19371276
000070 06 95 84 bd 81 08 be bd d1 f8 cb bc 28 37 0a bd
       -0.064737365 -0.09278966 -0.024898918 -0.033744007
000080 02 31 83 3b 20 53 27 bb f5 ef a5 bd 73 2c 8a 3e
       0.004003645 -0.0025531724 -0.08102409 0.26987037
000090 87 4e 1e 3d 16 0c 92 bd c4 a2 c8 3d 93 45 0a 3c
       0.03864911 -0.071312115 0.0979667 0.008439439
0000a0 e8 e3 ca bc 86 8d 8a 3e d6 b7 71 bd e9 fc 10 3c
       -0.024766877 0.270611 -0.05901321 0.008849361
0000b0 17 3e 00 be a0 c3 a1 bd c0 d4 3d 3d 42 44 87 3c
       -0.12523685 -0.07898641 0.046345472 0.01651204
0000c0 ad 9f bb bd 25 f7 b1 bd 92 ec 42 be 54 92 49 3d
       -0.09161315 -0.08689717 -0.19035557 0.049211815
0000d0 c3 ab ed 3d 65 b2 67 3c bb 3f 50 bd d5 b7 b0 bd
       0.116050266 0.014141654 -0.050842028 -0.08628813
0000e0 eb de 69 3d 9a 2c a2 3c 50 50 4d bb 90 0b 35 bd
       0.057097357 0.019796658 -0.0031328388 -0.04420048
0000f0 9f 5e d6 3c 0b f4 08 bd b8 ed bb 3e ad 05 b9 bd
       0.026168166 -0.033435863 0.36704803 -0.09034286
000100 ad ea f5 bd b9 e1 f3 bd 09 c3 8a 3e b2 d0 51 3c
       -0.120076515 -0.119082876 0.27101925 0.0128061045
000110 7d 1e a9 bc 69 83 9a 3d a1 6f 0b 3e d7 c2 e2 3b
       -0.02064442 0.07544596 0.13616802 0.0069201994
000120 a7 ce 4c bd 68 84 b7 3b c5 47 b6 bb a7 db 10 3e
       -0.050001767 0.005600501 -0.005562755 0.1414629
000130 1c c1 b8 3c ad c1 96 bd 9c 7e e9 3e 3e 7c 05 3d
       0.02255302 -0.073611595 0.45604408 0.03258919
000140 92 f8 17 3e cd 97 d1 bd 7c 40 86 3e a8 e7 12 3e
       0.14840916 -0.10234032 0.26221073 0.14346182

fc3.weight f4 [10, 84]
000000 11 b8 4a 3d 44 06 ba bc b5 bc 92 3d 92 e7 31 be
       0.049491946 -0.022708066 0.07164899 -0.17373493
000010 c7 8f 76 bd 38 fa 85 3d ce a1 1f 3e 3b ca 22 3e
       -0.06019571 0.06541866 0.15589067 0.15897457
000020 4f 55 39 bd c1 7d 16 3e 60 8f 05 be 99 f5 ab 3d
       -0.045247372 0.14696409 -0.13042974 0.083964534
000030 f6 fc 8c 3d 84 5c 87 bd 5f c1 c0 3d 43 4b b5 3e
       0.06884186 -0.06609443 0.094118826 0.35408983
000040 18 90 81 bd 0c f6 1d bd 38 ce 1e bd 59 be 90 3e
       -0.06326312 -0.038564727 -0.038770884 0.28270224
000050 dc ad ea 3d 3d 08 3f 3d 78 c5 38 be 7c 64 94 3d
       0.11458942 0.046638716 -0.18044078 0.072457284
000060 40 1c 9b 3d 13 bd 41 3d 3c af ac bd 08 33 5a be
       0.07573748 0.047299456 -0.08431861 -0.2130853
000070 05 3a 78 3d b8 17 80 3d 36 d2 19 3d a6 d7 db bc
       0.060602207 0.06254524 0.03755399 -0.026836228
000080 3f 24 93 bd 67 17 cd 3d 8c 14 2a be 29 c8 8e be
       -0.07184648 0.10014229 -0.166094 -0.27887085
000090 6a 0b c9 3d bd 25 9c 3d 19 4a 41 be 63 02 bb bc
       0.0981663 0.076243855 -0.18875922 -0.022828287
0000a0 f7 6c 99 3d c0 78 8c 3e a6 f0 df bd aa 1b e5 3c
       0.074914865 0.27435875 -0.10934572 0.027967293
0000b0 8d 31 96 3d 69 86 04 be e6 78 99 bd 14 47 47 bd
       0.0733367 -0.12941898 -0.07493763 -0.04865177
0000c0 21 06 3e bb 4b de 4b bd 10 c2 5d 3e 92 0e d1 3c
       -0.0028995352 -0.049772542 0.2165606 0.025519643
0000d0 e6 1c ce 3d 60 be c6 bc 09 85 81 3c 89 8c 59 3e
       0.10064106 -0.0242607 0.015810506 0.21245016
0000e0 5b 45 21 bb 88 10 67 3d 6f 7a 9f bd 64 59 51 3d
       -0.002460799 0.05641225 -0.07787024 0.05111064
0000f0 c7 92 42 3e 20 09 ba bd 90 bc bf 3d 7a c9 d2 3b
       0.19001304 -0.09083772 0.09362137 0.0064327093
000100 e5 60 cf bd 78 df fd 3a c4 9e 97 3e 80 45 a0 bd
       -0.10125903 0.0019368967 0.29613316 -0.07825756
000110 5e 39 45 3e 4d d5 de 3c a5 ef 71 bd b3 4e c6 3d
       0.19260165 0.02720132 -0.059066433 0.096829794
000120 ef 8a 0c 3d c8 4e 07 3e 26 d3 be bd c9 c5 05 be
       0.034312185 0.13213646 -0.09317617 -0.1306373
000130 4d dc 12 3d 5c c2 1b 3e ae da 9e be f5 45 5c 3d
       0.035854626 0.15210861 -0.31026214 0.053777654
000140 8d 15 55 ba 4d ad 29 be 5a 2b 87 be f3 4f a4 3d
       -0.00081285165 -0.16570015 -0.26400262 0.080230616
000150 7b 87 0c 3e 7b a5 fa bd f0 a8 82 3e 07 ff 0c be
       0.13723557 -0.12238594 0.25519514 -0.1376916
000160 84 7b bf bd d8 bc f3 ba 76 fa 73 bd ee 94 75 3d
       -0.093497306 -0.0018595709 -0.05956503 0.059956484
000170 24 d7 88 3e c4 8f 2b 3d 81 6f 1b 3d 23 b5 73 3e
       0.2672664 0.041885152 0.037948135 0.23799567
000180 ae 17 5d 3e 36 f8 dc 3d 84 d7 f9 bd 48 2c 4a 3e
       0.21591064 0.1078953 -0.121993095 0.19743454
000190 e5 79 9f 3e 80 b1 35 bc 9a 8f e1 bc ad d3 7d be
       0.31147686 -0.011089683 -0.027534295 -0.24787779
0001a0 e2 08 90 be 92 b3 bc bd 5c a7 40 be 14 e8 ca 3d
       -0.28131777 -0.09213938 -0.18813843 0.09907547
0001b0 09 8f 5a 3e 7c 3b 78 be e6 c5 50 3e d4 8a 87 be
       0.21343626 -0.24241441 0.20387992 -0.26473105
0001c0 a8 e6 18 bd 87 43 3b 3e 42 f2 c9 bc 81 68 0e 3d
       -0.037329346 0.18287478 -0.02465165 0.03476763
0001d0 a8 94 f2 bb 77 2b e7 bc 63 a5 b8 3d bc c2 89 be
       -0.007402975 -0.028218968 0.0901592 -0.26906383
0001e0 b7 71 ec 3d 80 76 28 bd b2 4b e9 bc 33 a8 38 3d
       0.11545127 -0.041128635 -0.028478477 0.045082282
0001f0 bc 38 b9 3d aa 14 18 3e 70 2d 0b bd f9 9d 7f bd
       0.09044024 0.14851633 -0.03397888 -0.062406514
000200 43 a8 c9 bd 14 04 8b 3e af 82 3e be 41 00 ca bd
       -0.098465465 0.2715155 -0.1860454 -0.0986333
000210 a0 db aa 3d 20 6d 77 3e 0d 20 89 bc 89 36 d2 bd
       0.083426714 0.24162722 -0.016738916 -0.10264308
000220 88 02 d6 bc 87 7b 36 3d 9e 59 07 bd 61 67 5f bd
       -0.026124254 0.0445514 -0.03304445 -0.05454195
000230 1f c3 33 bc f2 e6 38 bc 3d b5 af bd 5d 5b c9 bd
       -0.010971813 -0.01128553 -0.0857949 -0.09831879
000240 ad 72 12 be ac aa 27 3d da 07 58 be 6d 21 5f 3d
       -0.14301558 0.04093425 -0.21096745 0.054475237
000250 e0 db 88 3c 4b af fa bd 20 ab 37 be 5c aa 9a bd
       0.016706407 -0.12240466 -0.17936373 -0.07552025
000260 94 23 9e bd 6b 74 88 bd 9f bd 9e bd 35 d3 e8 3d
       -0.0772163 -0.0666283 -0.07751011 0.113684095
000270 6d 58 d7 3d e1 80 4c be 23 14 a8 bd 64 1d 4f be
       0.10514913 -0.19971038 -0.08206966 -0.20226055
000280 48 e1 20 3e 61 99 7f 3d 58 8c ad bd e8 4d 0c be
       0.15710938 0.062402133 -0.08474034 -0.13701594
000290 b4 85 22 be ca a2 40 bd 79 f4 10 be b3 60 93 3e
       -0.15871316 -0.047030248 -0.14155759 0.28784713
0002a0 9f 19 33 be c1 0e 4f 3e 7a c9 a2 bd 77 a3 61 be
       -0.17490242 0.20220472 -0.07948585 -0.22035013
0002b0 ae 23 de 3b 18 95 26 3e 6b a7 a7 3d c4 43 a4 bc
       0.0067791557 0.16267812 0.08186229 -0.020051844
0002c0 d5 7d 00 be 32 c6 0f bd fa c9 48 3e c7 b0 56 be
       -0.12548001 -0.035101123 0.19608298 -0.20965873
0002d0 a9 66 59 3d 4f 50 85 bd e3 bf b7 bc 88 c5 ce bd
       0.05307642 -0.06509458 -0.022430366 -0.1009627
0002e0 08 15 17 3e 32 82 84 3d 04 ed 00 be a5 7b 4a 3e
       0.14754117 0.06470145 -0.12590414 0.19773729
0002f0 3a b6 59 3e d8 29 09 bc 75 ad 87 3e 7a 7a 5f be
       0.2126092 -0.008371793 0.26499525 -0.21824065
000300 89 41 30 bd ed 43 b6 bd 66 4c 8d bd 59 14 dc 3d
       -0.04303125 -0.088996746 -0.068993375 0.107460685
000310 ef 8c a3 3d c8 68 17 bd 89 16 85 3d 16 ba da bd
       0.07985865 -0.03696516 0.06498439 -0.10680024
000320 32 ab 32 3e 4a 8a 1b 3d ab cf 27 3e 90 86 fc bc
       0.17448118 0.03797368 0.16387813 -0.030825883
000330 c5 52 df 3d 8f b2 87 3d ab 8e ca 3d 35 ef 8e bd
       0.10904459 0.06625854 0.09890493 -0.06979219
000340 33 9a e0 3d e0 dd 27 be fb 89 1f 3c 34 04 69 bb
       0.10966911 -0.16393232 0.009737487 -0.0035555484
000350 72 36 e4 3d de bf 6f bd 59 b7 01 3e 67 87 c1 3d
       0.11143197 -0.05853259 0.12667598 0.09449654
000360 88 a6 ff bc a4 43 e1 bd 8a db 41 3e 8e 76 f2 bd
       -0.031207338 -0.109992296 0.18931404 -0.11839019
000370 33 bd c1 bd da f3 0c be e6 58 97 bc 1f 6c 97 3d
       -0.09459915 -0.13764897 -0.018475007 0.07393669
000380 f1 83 a1 bd 04 ea 7f bd 63 a7 4e bd 31 46 f1 3c
       -0.07886494 -0.062479034 -0.0504526 0.029452415
000390 ca 58 62 3e 9a c9 db bd 39 c8 a3 3e 50 94 2c 3c
       0.22104183 -0.10731812 0.31988695 0.010533407
0003a0 0b c1 1a be 25 19 d4 bd f2 5a 8c 3e 63 dd 27 bd
       -0.15112703 -0.103563584 0.27413136 -0.040982615
0003b0 03 ee 9a bb a4 1e a0 3e 87 13 82 3e c6 ec 2a 3e
       -0.0047280802 0.31273377 0.25405523 0.16691884
0003c0 f5 2f 80 bc 2e f1 b3 bc d7 38 2a 3d cd 76 e9 3d
       -0.015647868 -0.02196559 0.041558113 0.113996126
0003d0 8f d5 b6 3d f4 24 d5 3b 5f e9 a3 3d 6e eb 27 bc
       0.08927452 0.0065046493 0.080034964 -0.010249002
0003e0 d4 db ff 3d a3 c4 73 bc 8e 7f 6c 3d 1a cd 30 bc
       0.12493101 -0.014878425 0.057738833 -0.0107910875
0003f0 41 75 2e 3c 2c 06 0c be fe b8 61 bd 8e 2b 44 3e
       0.010648073 -0.1367423 -0.055108063 0.1915724

fc3.bias f4 [10]
000000 4d fc 92 bd ae 23 c6 be 3f ba 50 3d 67 e7 c0 3e
       -0.07177029 -0.38699096 0.050958868 0.37676546
000010 cb 8e c4 3e 3a af 82 bd 47 74 b2 bd 75 77 97 be
       0.38390192 -0.06381078 -0.087135844 -0.29583326
000020 2e d2 03 3f 05 21 45 be
       0.51492584 -0.19250877
