deep-learning/cnn-cifar10/cifar_net.pth (torch, 251732 bytes, 10 tensors)

conv1.weight f4 [6, 3, 5, 5]
000000 7c bd 25 3d e6 4f 11 be 0c 25 81 be d7 8b 81 be
       0.04046391 -0.14190635 -0.25223577 -0.25302002
000010 fc 71 97 be a0 c5 d2 be 67 67 ce be 71 00 80 be
       -0.2957915 -0.411664 -0.40313265 -0.25000337
000020 d0 78 4d be c4 ab e9 bd 32 ce ac 3d ab 47 8d 3e
       -0.20065618 -0.11409715 0.08437766 0.2759374
000030 6c b3 98 3e 65 cb c1 3d 9e 20 42 3e 15 d1 87 3e
       0.29824388 0.094626226 0.18957755 0.26526704
000040 7a c1 d0 3e 2c 8a f3 3e f1 23 c9 3e bd bd 9b 3e
       0.4077261 0.47566354 0.39285234 0.30418196
000050 b3 c4 26 3e 8a 7a 5f 3e 1b 0e 10 3d 5c 5a 22 3e
       0.16285972 0.21824089 0.035169702 0.15854782
000060 00 ea 5b 3e 19 cd fe 3c 56 56 95 bc 9a a2 49 3d
       0.21475983 0.031103658 -0.018229645 0.049227335
000070 cd 78 6b 3d c6 33 0f bd 25 7f 9e be ff 51 79 be
       0.05748825 -0.034961484 -0.3095638 -0.24347685
000080 24 6e 32 be f8 ae 0b be 45 a8 40 be bf 9c a4 bd
       -0.17424828 -0.13640964 -0.1881419 -0.080377094
000090 9e d4 e3 bc 8a 7e 0f bc 49 3e 37 bc ea 61 10 3c
       -0.027811345 -0.008758197 -0.0111842835 0.008812407
0000a0 b5 67 91 bd c3 ff f3 3d e3 c5 3c 3e 10 8f 6c 3c
       -0.07099859 0.11914017 0.18434863 0.014438406
0000b0 7c 78 3f 3c 74 42 1c be 54 b6 88 be c4 79 4e be
       0.011686441 -0.15259725 -0.26701605 -0.20163637
0000c0 be 74 b9 bd 4e 4e 61 be ce dd 86 3e 0c ee 1f 3e
       -0.0905547 -0.22002527 0.263411 0.15618151
0000d0 95 52 4e 3d 26 32 3f 3e 87 c3 9e 3e 9c db f7 bd
       0.050371725 0.18671474 0.3100855 -0.12102434
0000e0 5c 3b a4 bd e8 2b 48 be d0 a0 93 3d c9 6a da bc
       -0.080191344 -0.19547999 0.07208407 -0.026662247
0000f0 7d 76 ba 3d 23 6e 71 3e f9 95 49 3e d7 08 77 3e
       0.09104631 0.2357717 0.19686116 0.24124466
000100 78 8e c6 3d db eb 04 3e 0d 33 27 3d 20 da 20 bd
       0.096951425 0.12980597 0.04082017 -0.03927052
000110 78 87 88 3d 79 8e 78 bd cb 38 49 be 3d 8e 0a be
       0.066664636 -0.060682748 -0.19650571 -0.13530822
000120 96 b1 89 be fc 7e 1a be 4e f5 35 be 11 4c cd 3e
       -0.268933 -0.15087503 -0.17769358 0.40097097
000130 ea 0c b1 3e 7f 47 dc 3d bd f7 ad 3b 56 be 0a 3e
       0.34580165 0.10755824 0.0053090737 0.1354917
000140 69 11 5e 3e 77 5f 02 be 8c 96 22 be 51 4c e1 3d
       0.21686329 -0.1273173 -0.15877742 0.11000884
000150 b4 6b 80 3e 14 dd da bd 35 1b af be 42 b9 1a 3c
       0.2508217 -0.106866986 -0.34200445 0.009443583
000160 79 4c 2c 3e 34 ce 6a bb 56 b6 9e bd a5 c3 e6 be
       0.16826047 -0.0035828473 -0.077496216 -0.4507114
000170 87 4b 36 be c7 23 be 3d 68 d9 54 3d be 6b 3e be
       -0.17802249 0.09284168 0.051965147 -0.18595788
000180 fe d8 6d be 1c de 84 be ff 51 27 be 51 73 dd bd
       -0.23227307 -0.25950706 -0.16339873 -0.108130105
000190 1e 98 fe bd 5d 7d 0a be b3 c3 93 be 4b 2f eb be
       -0.12431358 -0.13524385 -0.28860244 -0.4593452
0001a0 8b 90 a7 be d0 a9 b7 bd 05 c4 cd be 7a 06 33 be
       -0.32727465 -0.08967936 -0.40188614 -0.1748294
0001b0 d1 c9 55 3d 23 60 9b bc 09 7d 02 3c 50 38 d4 be
       0.05219442 -0.01896674 0.007964381 -0.41449213
0001c0 31 af 6c 3d c7 e9 48 3e e3 78 4d 3e 5a d0 06 3e
       0.057784263 0.19620429 0.20065646 0.13165417
0001d0 52 47 bf be 9a 64 ea 3d 03 e7 9a 3d 96 59 19 3e
       -0.373591 0.114449695 0.07563593 0.1497558
0001e0 39 06 de 3d 69 40 9b 3d 3d d4 1e 3c 09 d7 45 3e
       0.10841031 0.07580645 0.009694156 0.1932031
0001f0 7c eb 4d 3e d3 b3 15 3e 3e b5 1c be 2c 70 4d be
       0.20109361 0.14619379 -0.15303513 -0.20062321
000200 ae 2c 42 be ef c7 5d bb 0d af 3d 3d cd 50 96 be
       -0.18962356 -0.0033841094 0.04630952 -0.2935852
000210 4b c5 07 be 2a 1f 3b 3e 94 de 5a 3e ac c7 89 bd
       -0.13258855 0.18273607 0.2137397 -0.067275375
000220 ae 5e cc be cb 8e 38 bd 34 5a b8 3e 3e 2f 03 3e
       -0.39915985 -0.045058053 0.3600632 0.1281099
000230 90 1e 8f bd 15 ca 52 be 59 22 91 3d 0c 14 0a 3e
       -0.06988251 -0.205849 0.070866294 0.1348421
000240 13 3c fd 3d 26 48 8f 3d 27 21 24 3d 48 f3 f2 3c
       0.12364974 0.06996183 0.04007068 0.029657021
000250 b3 11 ee 3d 4f ae 63 3e 12 05 20 be 8a 22 16 be
       0.116244696 0.22234462 -0.15626934 -0.14661613
000260 43 5a 9e bb d5 db 4f bc 01 df d7 bd f8 6e 12 be
       -0.0048325374 -0.012686689 -0.105405815 -0.14300144
000270 aa ac d1 bd 45 93 67 bd 53 b7 e6 3d 17 a0 96 bd
       -0.10238011 -0.05653693 0.11265435 -0.073547535
000280 dc dc d7 3c 96 3a 18 3e c3 c6 74 3d 2e fc 64 3d
       0.026350431 0.14866099 0.059759866 0.05590456
000290 57 1a 2d 3d 55 21 26 3d 2e 74 45 3e 83 a4 30 3e
       0.042261448 0.04055913 0.192826 0.17250256
0002a0 1e 79 1f 3d 39 e6 1c 3c 94 a4 bb 3d 81 1a 1b 3e
       0.038933866 0.009576374 0.0916225 0.15146829
0002b0 8a b7 88 bc 5e a1 9e 3d 84 26 1d bd 5a bd 9b bd
       -0.01668908 0.07745622 -0.03836681 -0.07604475
0002c0 a6 e0 32 bd cb cf 9a bd e4 d0 d0 bd 52 97 4c ba
       -0.043671273 -0.075591646 -0.10196093 -0.0007804531
0002d0 8c 93 a5 bd 6a c3 57 bd 1e 5c 44 bd fe cd 05 3d
       -0.08084783 -0.052676596 -0.047939412 0.032667153
0002e0 1f b6 c5 ba 54 58 2e bd a8 6f 70 3c a1 39 fa 3c
       -0.0015084184 -0.042564705 0.014675058 0.030545058
0002f0 75 18 03 3e 24 2b 40 3c 02 78 ac bd df c8 c9 bd
       0.12802298 0.0117290355 -0.08421327 -0.09852766
000300 1a a3 17 3b ef a0 b9 3d 84 65 01 be 21 1a 8c 3d
       0.0023137988 0.09063899 -0.12636381 0.06840921
000310 61 51 86 bc e3 e5 d9 3d d3 30 f2 bd 12 bc 02 bd
       -0.016396226 0.106395505 -0.11825719 -0.03191764
000320 2d 39 43 bd 00 33 00 3e a8 45 96 3d cf e5 84 3e
       -0.04766195 0.12519455 0.073375046 0.2595658
000330 64 39 76 3e f6 55 ed bd ec f5 c8 3d ee 74 80 3e
       0.2404533 -0.115886614 0.09812531 0.2508921
000340 cf 68 8f 3e 95 a5 00 3e 59 10 39 be 4f 62 57 3d
       0.2800965 0.12563165 -0.18072642 0.05258399
000350 57 30 86 3e 7a f5 9f 3e 92 0d 0f bd e1 bd 49 be
       0.26208755 0.3124197 -0.03492505 -0.1970134
000360 d5 1c c6 3c 72 99 fa 3d e0 8d 1d 3e d0 a8 08 3d
       0.02418367 0.122362986 0.15386152 0.033364117
000370 e0 a0 22 bd e2 8e af 3d 06 d4 1b 3e 2b 1d 7e 3d
       -0.039704204 0.085721746 0.152176 0.062039535
000380 4d 24 ab bd 4d c5 8c 3e 00 e3 c0 3d 17 90 de 3d
       -0.08356533 0.2749428 0.09418297 0.10867327
000390 0e 0e 17 3e 87 1c 1c 3e 49 3f 7f be ef c7 a6 be
       0.14751455 0.15245257 -0.24926485 -0.32574412
0003a0 3b 42 94 be eb e2 8b be e4 fc ba bd e5 25 18 be
       -0.2895678 -0.27321562 -0.09130266 -0.14858206
0003b0 01 2f 84 be 70 8b 83 be 10 3c 4b be 93 12 45 be
       -0.2581711 -0.2569232 -0.19847131 -0.19245367
0003c0 47 1c 1c bc ac 5b 84 3e 21 f6 8a 3e bc 82 0a 3e
       -0.009528226 0.2585119 0.27140906 0.13526434
0003d0 33 02 cd 3d f0 73 00 3e 82 4f c3 3d 1a 68 30 3e
       0.10010185 0.12544227 0.09536649 0.17227212
0003e0 df bf c4 3c f4 42 8e bd cd da 4f 3e 7a c6 6f 3e
       0.024017273 -0.06946364 0.2029831 0.23415557
0003f0 ba 88 ce 3c b1 eb 36 3e 62 11 c6 3c 1c 52 a6 bc
       0.02521168 0.17863347 0.02417821 -0.020302825

conv1.bias f4 [6]
000000 48 b1 87 be 5c 44 91 be 71 74 98 3d 82 b9 78 be
       -0.26502442 -0.28372467 0.074440844 -0.24289516
000010 6d a2 e0 bd a7 af e1 3e
       -0.1096848 0.44079325

conv2.weight f4 [16, 6, 5, 5]
000000 cb 35 02 3e c2 e9 ec 3d 90 78 72 bd ff 32 8e 3d
       0.12715833 0.11568023 -0.05919701 0.069433205
000010 93 5e a9 3d f6 c4 0a 3d d6 0f c6 bb c8 7b de 3c
       0.08269992 0.033879243 -0.0060443683 0.027158633
000020 ce 69 f9 3d f6 43 42 3d 92 60 83 bd 49 56 14 3c
       0.12178384 0.047428094 -0.06414904 0.009053775
000030 a8 a9 b3 3d a7 8f 3d bd fc 63 ff bb 9d c8 ef bc
       0.08772594 -0.046279576 -0.0077939015 -0.029270465
000040 00 13 92 3d 34 f2 cc 3d 8c 00 f6 bd 78 f4 74 bd
       0.0713253 0.10007134 -0.12011823 -0.059803456
000050 ae 37 9d bc e1 2a 8e 3d 4b 8f 66 bd 51 96 74 bd
       -0.01919159 0.06941772 -0.056289 -0.059713665
000060 41 27 c4 bd 86 eb 95 3e b8 03 4d be fa 34 2b be
       -0.095777996 0.29281253 -0.2002095 -0.16719428
000070 4a 9c 11 3e 8d b5 5f 3c c3 55 61 3e df ac 45 be
       0.14219776 0.013654125 0.22005372 -0.19304226
000080 fa db 08 3e 59 2a a3 bc ec f9 cb 3b 02 f3 25 be
       0.13365164 -0.019917654 0.0062248614 -0.16205981
000090 44 03 13 3e 3c 62 4b 3e 08 e5 07 be 08 f0 03 be
       0.14356714 0.19861692 -0.13270962 -0.12884533
0000a0 d7 cd 70 be 15 41 b4 3e 86 b8 38 3d 63 fc 92 b9
       -0.23516022 0.35205904 0.04509785 -0.00028035333
0000b0 13 6f 44 bd a6 92 6a 3c 1e bc 5e 3e ef d6 99 bd
       -0.04795749 0.01431719 0.21751449 -0.075116985
0000c0 c7 e9 7a bd c4 2f 9a bb 5c 72 b8 bd 17 77 cc 3c
       -0.061258104 -0.004705401 -0.09006187 0.02495913
0000d0 95 ab 5d bd 87 5f a2 bd a3 0e 81 be 62 8b 1c 3d
       -0.05411871 -0.07928377 -0.2520648 0.038218863
0000e0 cf 36 20 3d 9d 56 06 be 5a d9 eb bd 7f 63 3a be
       0.03911477 -0.13118978 -0.11516066 -0.18202017
0000f0 f2 b4 01 3d 9b 99 92 bd 38 9e 2f be 58 7e 51 be
       0.031666704 -0.07158204 -0.171502 -0.20458353
000100 df 5b 27 be 93 be 21 bd b7 2e d2 bc f1 69 32 be
       -0.1634364 -0.039488386 -0.025657041 -0.17423226
000110 5d 85 bb bd 0d 48 0c be cf 1f f8 bc af 38 d5 bd
       -0.091562964 -0.1369936 -0.030288605 -0.10411202
000120 1b e6 24 be e8 be cd bd 85 42 9d bd 67 77 ff 39
       -0.16103403 -0.10046178 -0.07678703 0.00048726352
000130 6d b9 8d bd 92 ff c4 bc aa 1f 0a bd 47 1c 01 bd
       -0.06920133 -0.024047647 -0.033721603 -0.031521108
000140 42 33 32 3d 45 00 06 be 6e 99 07 3d c6 28 a2 3d
       0.043505915 -0.1308604 0.033105306 0.07917933
000150 8f 30 63 bd 4d c4 91 bd af 47 c3 3d f0 a8 da 3c
       -0.05546623 -0.071175195 0.09535157 0.026691884
000160 ac de c6 bb c5 41 74 bd e5 ea ad bb 4a 78 e7 bc
       -0.006069025 -0.059633035 -0.0053075426 -0.0282556
000170 4c 18 50 3d 06 aa c8 bd b3 13 b3 3c aa d0 f3 bb
       0.05080442 -0.097980544 0.02185998 -0.007440646
000180 42 74 43 3d 6e 6b 68 bc 3f eb be bd 2e d9 4c 3d
       0.047718294 -0.0141857695 -0.093222134 0.050011806
000190 30 9b 3f 3d fe 13 3f 3e 3e 48 81 bd 38 35 e0 bd
       0.046778858 0.1865997 -0.06312607 -0.10947651
0001a0 5d 3d 2c bc d5 20 e1 3d 51 2d 92 3d d2 88 1c be
       -0.010512677 0.1099259 0.0713755 -0.15286568
0001b0 29 dc 30 bc d5 20 d9 bb f3 9e 85 3c 89 d4 0d be
       -0.010794678 -0.0066262283 0.016311144 -0.13850607
0001c0 40 62 cb bb 80 19 ab bc 4e 10 81 3d b2 50 53 3d
       -0.0062067807 -0.020886183 0.06301938 0.05159063
0001d0 2b ae 62 be cf ab 6d 3d 40 4c 80 3c ee 40 40 3d
       -0.22136752 0.058025178 0.015661359 0.04693692
0001e0 fc 28 7c be 6c ed 6d bc 8b d0 ab 3d 08 4a 70 bd
       -0.2462501 -0.014521938 0.08389386 -0.05866435
0001f0 08 3e 46 bc 5e f4 ff 3d 34 aa 37 bd 6f 12 75 3d
       -0.01209975 0.12497781 -0.044840053 0.059832033
000200 49 a9 4c bd d2 f0 b9 bd d3 ff 2c 3e 23 c0 c2 3c
       -0.04996613 -0.09079136 0.16894464 0.023773259
000210 e3 d9 8d 3d 65 a7 14 bc 26 db 4d 3a 10 56 22 3e
       0.06926324 -0.009073113 0.0007852785 0.15853143
000220 df 5e 04 3e 7b 0b 95 bd 1a ef 97 bd 0b 01 7e bd
       0.12926815 -0.0727758 -0.07418652 -0.062012713
000230 35 9a 47 3e 14 5b b2 3d f7 bf 56 bd 3a 23 d5 bd
       0.19492419 0.08708778 -0.052429166 -0.104071096
000240 e6 20 15 be 94 80 59 3d 72 e7 70 bd b2 f3 da bd
       -0.14563331 0.053101137 -0.058814473 -0.106910124
000250 29 b2 42 be 98 86 0b be f4 c1 33 3e 60 79 82 3e
       -0.19013275 -0.13625562 0.17554456 0.25483227
000260 ec 82 8f 3e 83 44 5f 3e f4 46 6a 3e 47 90 4d 3e
       0.28029573 0.21803479 0.22878629 0.20074569
000270 6c 3f 14 3e 34 25 bc 3d 43 f5 45 3e 6a 89 44 3e
       0.14477319 0.091867834 0.19331841 0.19193044
000280 07 51 05 3e a7 2f 77 3d 68 46 91 3d c5 93 07 3d
       0.1301919 0.06034818 0.07093507 0.03309991
000290 55 53 5b 3d 1c 90 82 3c 8e 86 0a 3c b7 b4 4c bd
       0.05354627 0.015937857 0.008454932 -0.04997703
0002a0 3e d6 e4 bd 0e 7a 39 be ed 22 65 be 4d d4 3b be
       -0.11173676 -0.18112966 -0.22376604 -0.18342705
0002b0 63 c8 26 be c6 f3 07 be 69 01 c2 bd ca 1d b4 bb
       -0.16287379 -0.13276586 -0.09472925 -0.005496715
0002c0 d4 90 22 be a7 87 03 be c9 a2 36 be 83 43 a4 bd
       -0.1587556 -0.12844716 -0.17835535 -0.08020689
0002d0 99 04 1d be f4 8d 5a be c5 30 ae be 0b 76 84 be
       -0.15333785 -0.21343213 -0.34021583 -0.2587131
0002e0 28 12 29 be f5 cb 2f be 2b 31 a8 bd 6e 6e 1a be
       -0.16510832 -0.17167647 -0.08212503 -0.15081188
0002f0 d0 43 37 bd e7 e4 a5 3c dc 33 9f bc 01 68 ef 3d
       -0.044742405 0.02025075 -0.019433908 0.11689759
000300 ad f6 09 3e 07 29 b7 3d 09 dc 06 3e 88 c2 ba 3d
       0.13473006 0.08943372 0.13169874 0.09119135
000310 e9 af 8a 3e 2b 7f 06 3e 59 48 e2 3d d1 4c 77 3e
       0.27087334 0.13134448 0.110489555 0.24150397
000320 61 cf 91 bd 09 15 26 bd 13 27 39 be 3f b6 21 be
       -0.071196325 -0.040547404 -0.18081312 -0.15792178
000330 ff 35 87 bd 83 70 30 3d 9a 60 43 bd 5e 2a 1e 3c
       -0.06602096 0.04307605 -0.04769955 0.009653656
000340 ab 5c 51 bd df f8 62 3d c6 1a 83 3d 10 b2 ed 3d
       -0.051113766 0.055413123 0.06401591 0.11606228
000350 8e b4 4c 3b d5 d6 81 3b 34 40 fa 3d 5d d5 2a 3d
       0.0031235549 0.0039623776 0.12219277 0.041707385
000360 3c af b9 bd fd c1 21 3d 57 f9 5a bd af 66 66 3d
       -0.090666264 0.039491642 -0.053460445 0.05625027
000370 73 14 9f bd 42 1a de bd 96 70 2c bd a1 bf 9b 3c
       -0.07767572 -0.10844852 -0.042099558 0.019012274
000380 b8 3d 24 bd cf 9f 3b 3e d9 ef 69 3e a9 e9 63 3e
       -0.040097922 0.18322681 0.22845401 0.22257103
000390 e1 83 36 3e 27 10 eb 3d f1 3c 1a 3e 02 fa 64 bd
       0.17823745 0.1147769 0.1506231 -0.05590249
0003a0 2c e5 80 3c c8 a6 5d bd 29 1e 53 3d e1 21 a3 bd
       0.015734278 -0.054114133 0.051542435 -0.07965446
0003b0 ea 5d 35 be ab 17 14 be b8 a4 dd bd a2 9c 43 be
       -0.17711607 -0.14462154 -0.10822433 -0.1910272
0003c0 f9 3a 8a bd 55 e8 ef bd bf b9 15 be ba 85 08 be
       -0.067495294 -0.11714236 -0.14621638 -0.13332263
0003d0 01 19 21 be 47 db a1 bd 1f e0 8b bd 36 63 6e bd
       -0.15732194 -0.07903152 -0.06829857 -0.058200084
0003e0 37 c3 d0 bd 5b 57 85 bd 10 68 e0 3d a5 5e 54 3d
       -0.10193484 -0.06510802 0.10957348 0.051848073
0003f0 a9 de 9d bc 3c ef a8 3d aa 6b 0c 3d c1 35 49 bd
       -0.019271212 0.08248755 0.034282364 -0.04912353

conv2.bias f4 [16]
000000 a4 40 90 3e d8 15 d6 be cf 6a cc 3c ea bd 97 be
       0.28174317 -0.4181354 0.024953274 -0.2963708
000010 20 62 b3 bc 17 0a a9 3f 92 82 85 bc 8c 24 16 be
       -0.021897376 1.3206204 -0.016297612 -0.14662379
000020 0a e8 c4 3e 53 b2 3c 3f 62 aa 6f 3d 63 44 0c bf
       0.38458282 0.737096 0.0585121 -0.5479185
000030 e9 3d 03 be 00 59 2b 3d 25 a8 dd bd e0 08 99 be
       -0.12816586 0.041832924 -0.10823087 -0.29889584

fc1.weight f4 [120, 400]
000000 7e ea 6c 3d 4c fa 5c 3d 9b a5 e7 bc 98 31 8a bc
       0.057840817 0.05394964 -0.028277209 -0.016869351
000010 19 2c 6d bd 2c e5 d8 3c 3a 54 05 3d 21 e0 0d bd
       -0.057903383 0.026476465 0.032551028 -0.034637574
000020 98 35 88 3b b7 fa 0a 3d ef 0b f0 3c 53 0c c8 3c
       0.0041567795 0.033930507 0.029302565 0.02441994
000030 dd 0d 4d 3b 99 61 48 3d 32 72 16 3d 1a 8b ec 3c
       0.003128878 0.0489212 0.03673 0.028874923
000040 e3 21 a5 3d dc f8 b7 3d e0 ac 4d 3d 1d 16 22 3d
       0.08063104 0.08983013 0.050213695 0.03957187
000050 55 9b d3 3c ef 25 4e 3d 72 35 04 3d 06 ed 9c 3d
       0.025830904 0.050329145 0.032277532 0.07662396
000060 d0 2e ff 3c 79 fb 3a 3d 65 58 49 bd fc be 2b bb
       0.031150252 0.04564998 -0.049156565 -0.0026206365
000070 df 46 96 3a ce e7 81 3d 29 bf 96 3d 4b b7 ee bb
       0.0011465213 0.06343041 0.0736068 -0.007285034
000080 af 2a 00 3d eb 10 95 3d 38 5c 11 3d 30 b0 67 3d
       0.031290706 0.072786175 0.035488337 0.05656451
000090 61 98 b6 3c 43 9c 69 3d 3c ea 62 3c a5 87 b6 3c
       0.022289457 0.05703379 0.013849791 0.022281477
0000a0 56 10 89 3c a1 3b ef bc c0 cd 33 3a 21 87 17 3b
       0.016731422 -0.029203238 0.0006858967 0.0023121315
0000b0 96 fb f0 3c bb 28 7c bd ef 22 ab bd 17 62 db bc
       0.02941684 -0.06156228 -0.083562724 -0.026780171
0000c0 0b b9 86 bd 52 75 88 bd 31 43 05 bd 7a 49 00 3d
       -0.06578263 -0.06663002 -0.03253478 0.031320073
0000d0 db a9 3f bd c9 49 2c 3d 66 a7 69 bc fb 98 24 3d
       -0.046792846 0.042062555 -0.014261102 0.040184956
0000e0 a3 6f 66 3c c1 f8 e6 3c 6b ac d3 3b 61 e6 d8 bc
       0.014064702 0.028194787 0.006459763 -0.02647704
0000f0 6f 24 32 3d c1 52 40 3b 39 26 d5 ba fb 05 2e bd
       0.043491777 0.00293462 -0.0016262002 -0.042486172
000100 7c 85 2e bd e7 42 20 bd 68 91 de 3c 70 32 ce 3c
       -0.04260777 -0.039126303 0.027168944 0.025170535
000110 5b 95 86 3c 17 25 4d b8 e1 db 32 bd a4 e3 29 3c
       0.01642864 -4.891035e-05 -0.043666724 0.010369215
000120 01 1d 11 3d 94 0a ba bb 97 7c 31 3d 52 37 8d bc
       0.03542805 -0.0056775305 0.04333171 -0.017238293
000130 2b 3b 47 bb a9 63 11 bd f0 54 e3 bc 4c db 59 bc
       -0.0030400257 -0.035495434 -0.027750462 -0.013296913
000140 1b de e5 bc 93 b1 32 3d a1 0a f3 bc 6b 30 95 3a
       -0.02806001 0.04362638 -0.029668154 0.0011382228
000150 1c de 60 3d 13 cc 5b bc ed ca 00 3c 4c 4d 4d 3d
       0.05489932 -0.013415354 0.007860881 0.050122544
000160 0d 94 35 3d 89 93 eb bb 24 85 3b 3c c6 07 2e bb
       0.044330645 -0.0071892184 0.011445317 -0.0026554926
000170 1b 38 b1 bc c8 4c 19 bd a1 3d a1 3b f5 cc c7 bc
       -0.021633198 -0.03742674 0.004920677 -0.024389723
000180 89 4f d1 bc b0 82 d8 3c cc d1 2c bd 3b fd d6 3c
       -0.02555062 0.026429504 -0.042192265 0.026243797
000190 30 89 bd bd e5 9e dd 3c d9 a0 bc 3c f6 f8 42 bd
       -0.09254682 0.027053306 0.023025917 -0.04760071
0001a0 f3 63 42 bd a4 c8 3f 3c 13 d1 87 3d f9 d0 af 3d
       -0.0474586 0.011705551 0.066316746 0.0858478
0001b0 95 59 2c 3b 50 59 2b bd 34 22 70 bd ed 4f 1b 3c
       0.0026298512 -0.041833222 -0.05862637 0.009479505
0001c0 18 12 cb 3c 28 88 f9 3c b3 e4 13 3c 4f ff 38 bd
       0.024788901 0.030460432 0.009026694 -0.045165356
0001d0 10 49 32 3d d2 43 8b 3d 54 9e 26 3c 3b 58 af bc
       0.04352671 0.06800045 0.010169584 -0.021404376
0001e0 b9 a3 e1 bc d4 e5 92 bc 15 46 c3 bc d1 93 4b 3d
       -0.02754389 -0.017931856 -0.023837129 0.049701516
0001f0 3d 79 57 bd b2 cf 3f bd 78 8a 20 3c 5a e2 76 bd
       -0.052605856 -0.046828933 0.0097986385 -0.06027446
000200 a4 58 36 bd 39 a4 61 bc d3 c3 df bc 04 75 a3 bd
       -0.044518128 -0.013772064 -0.027315056 -0.07981303
000210 ab 17 71 3c 98 45 3f bb db c2 c7 bd 94 d0 21 bd
       0.014715116 -0.0029185768 -0.097539626 -0.039505556
000220 67 ad 6f bd 66 36 37 bd 2c ce 13 bd f2 b1 29 bd
       -0.05851498 -0.044729613 -0.036085293 -0.041429467
000230 45 bf 58 bd 00 64 0f bd 85 39 24 bd f0 b7 8a bc
       -0.052916784 -0.035007477 -0.040093917 -0.016933411
000240 b8 a9 97 bd 59 30 0c bc 5e f3 37 bd dd 8f 02 3d
       -0.07405418 -0.008556449 -0.044909827 0.03187548
000250 75 94 2a 3d 67 de 3f bd da 36 9b bd 54 56 97 bd
       0.041645486 -0.04684296 -0.075788215 -0.07389513
000260 45 42 81 bd eb c0 20 3d 86 c5 00 bd cb b4 a0 3c
       -0.06311468 0.03924648 -0.031438373 0.019617459
000270 9a 05 65 bd 90 12 c6 bd 44 7b d3 bc b7 1b dd 3b
       -0.055913545 -0.09671509 -0.025815614 0.0067476886
000280 8c 08 05 bd 2d 6a c0 bd e5 a6 c9 bd 21 8b 71 bd
       -0.032478854 -0.093952514 -0.09846286 -0.058970574
000290 6c b4 94 bc 1e 51 25 bc 76 63 4d 3c fb b3 42 3d
       -0.018152438 -0.010090141 0.01253592 0.047534924
0002a0 39 da 94 3b 8c 0e db bc 11 bb b4 3c ad 88 bb bb
       0.0045426157 -0.026740335 0.022061856 -0.00572308
0002b0 5f 9b 32 bc 51 37 8b bd b0 09 9e bd f4 56 a7 bb
       -0.010901301 -0.0679766 -0.077166915 -0.005106801
0002c0 2c 5c 7d bc fb 19 f5 bc d3 fe c7 3c 6d d1 8f 3d
       -0.01546387 -0.029919615 0.024413502 0.07022367
0002d0 3a d1 66 bc e8 c6 5c bc 78 ca 89 3c 07 d2 0b 3d
       -0.014087969 -0.013475157 0.016820177 0.034135845
0002e0 2d 8d f8 3c 62 1d b4 bc b9 f4 25 bc 5c 81 1c 3d
       0.030340755 -0.021986667 -0.010129147 0.038209304
0002f0 24 c9 01 3c dc 0e 6f 3d cd 0c d8 3c 0c fb 2b 3d
       0.007921491 0.05836378 0.026373291 0.041987464
000300 c2 3f ae bd 2d 6f 17 3c 15 08 fe bc 5f f2 37 bd
       -0.085082546 0.009242815 -0.031009713 -0.044908877
000310 03 6b 99 3c 7f c5 66 3d 12 02 a2 bd ee b2 1c 3b
       0.018727785 0.05634069 -0.07910551 0.0023910361
000320 b4 5d 80 bc f9 d2 8f 3b 1e 6a ae 3d 73 bc 95 3d
       -0.015669681 0.0043891636 0.08516334 0.073113345
000330 06 55 02 3d 8c da 67 3b bf c4 af 3d 3a a9 4a 3c
       0.031819366 0.0035378067 0.08582448 0.012369448
000340 8b fe 93 3d 7b 1d 99 bc 1c c5 0c 3c 0f 77 3a bc
       0.072262846 -0.018690815 0.008591916 -0.011380925
000350 66 d4 33 3d 16 30 40 3c 3f 6b 3d 3c 0e c3 89 bc
       0.04390373 0.011730215 0.011561214 -0.016816642
000360 ef a3 7d 39 87 db 87 bd 0e 82 81 bc b8 7b 8f bd
       0.0002418903 -0.066336684 -0.015809085 -0.07006019
000370 79 3f f0 bc 3b 47 ff 3b fb d2 21 bd b2 6d 88 ba
       -0.029327141 0.0077904738 -0.039507847 -0.0010408668
000380 4e c8 ed 3b 48 a7 16 3d 79 ea 04 3d 39 10 16 bc
       0.007256544 0.036780626 0.032450173 -0.009159141
000390 3b fb 2b bc 86 50 f7 bb 05 05 00 bc ab 79 29 bc
       -0.01049691 -0.007547441 -0.007813697 -0.010343949
0003a0 68 ad 10 bc db a6 20 39 25 a8 04 bd c2 8a 4f bd
       -0.008830406 0.00015320948 -0.032386918 -0.05066944
0003b0 2d 34 2f bd dc 4b 97 bc 15 a9 9b bc 65 6c 08 3d
       -0.042774368 -0.01846879 -0.019001523 0.033306498
0003c0 f9 f5 0a 3d 29 dd 8b bc fe f2 bc 3d 7b 66 2e bc
       0.033925984 -0.01707323 0.092260346 -0.01064455
0003d0 25 d7 3d 3d 0a a4 13 3d 17 92 40 3d 76 ca 83 3d
       0.046347756 0.03604511 0.047014322 0.06435101
0003e0 54 6b 5c 3c c9 53 4b bc 2d f7 1b 3d a2 6b 35 bd
       0.013453323 -0.012410113 0.038077522 -0.0442921
0003f0 91 05 b5 3c d8 5e b7 bc 18 3f 4a bd 50 a8 86 bc
       0.02209738 -0.022384092 -0.049376577 -0.01643768

fc1.bias f4 [120]
000000 6e fc 7e 3b aa 87 ad bd fc 87 71 3d 78 b2 f5 bd
       0.0038907784 -0.084731415 0.058967575 -0.11996931
000010 e5 56 97 3c c4 d9 a6 3d 5f 7b d3 3d a4 7f 9d 3e
       0.018474052 0.08147004 0.103262655 0.30761445
000020 b9 41 17 3e 7f 76 8a 3e 1b 8e ac bd 64 5b bf bc
       0.14771165 0.2704353 -0.08425542 -0.023359008
000030 60 e4 ed 3b ad aa e1 3c 4f 7e 06 3e 2f 82 c8 3d
       0.0072598904 0.027547205 0.1313412 0.097904555
000040 88 0e b9 bc 57 5a 34 3d 69 a4 29 3e 0d 45 2f be
       -0.022589937 0.044031467 0.16566624 -0.17116185
000050 55 e8 12 bd 74 65 56 bd 3a 76 e3 3d 03 fe 54 3d
       -0.0358661 -0.052342847 0.11106534 0.052000057
000060 7a 7d 25 3d ad a1 4e be 2b 8a b2 bb d9 b3 0e bc
       0.040402867 -0.20178862 -0.0054486 -0.008709871
000070 12 9d 08 3b be 80 e3 bd 41 c5 38 bd 76 71 02 3d
       0.0020845574 -0.1110854 -0.04510999 0.031846486
000080 35 b3 75 3d 52 bb d6 3d d5 bb 71 bd f4 1c cb bc
       0.05998536 0.10484947 -0.05901702 -0.02479408
000090 a1 b3 3d 3d f1 97 7c 3d 3f a3 e1 bc 4f 98 d1 bd
       0.046313886 0.06166834 -0.027543662 -0.10234129
0000a0 d7 93 ea bc e5 45 0f 3e 38 94 52 3d ed 90 a2 3c
       -0.028634949 0.13991506 0.051410884 0.019844497
0000b0 01 02 08 3e c2 b9 ed bc f5 8f 1c 3c 1b 35 29 bd
       0.13282014 -0.02901924 0.009555806 -0.04131041
0000c0 91 48 ad bd 96 21 c5 3d 59 57 84 bd 55 ff e5 ba
       -0.084611066 0.09625547 -0.06461973 -0.0017547408
0000d0 4f 6e 2e bd 64 eb a5 3c ac ed 69 bd 47 0f b1 ba
       -0.042585667 0.020253845 -0.057111427 -0.0013508581
0000e0 32 3d d5 3d 29 cb ac bd 59 7d b4 3c 14 fa d5 3d
       0.10412063 -0.08437187 0.022032427 0.10448089
0000f0 db bc 36 3d d0 6e 07 be 61 1c 32 bb 63 cd 7a 3d
       0.0446137 -0.13225865 -0.002717756 0.06123103
000100 67 90 a4 3d 09 6d cd bd 09 23 28 3e 6b 61 a3 3d
       0.08035355 -0.100305624 0.16419615 0.079775654
000110 08 ff 34 bc 02 42 09 3e c9 53 db bd f5 78 bd 3b
       -0.011047132 0.13404086 -0.1070934 0.0057822415
000120 bc 4d f7 bb 92 78 47 bd ef 90 dd 3d ce 5c 83 3d
       -0.0075471085 -0.04869897 0.108186595 0.064141855
000130 fd 93 db 3c 49 e4 d3 bc a5 87 5b bd be ee 65 bc
       0.026803965 -0.02586569 -0.053596158 -0.014033971
000140 01 50 9a bc 1e 66 77 b9 e5 df 9f bc 21 db 96 3c
       -0.018836977 -0.00023593797 -0.01951594 0.018415036
000150 be 91 d1 3c 1f 1f 92 3c 72 73 85 3b 2c e6 ff bc
       0.02558219 0.017837105 0.0040726 -0.031237684
000160 e9 bc 17 3e 0a 10 08 be 22 99 fb 3c fc cd e0 3c
       0.14818157 -0.13287368 0.030712668 0.027441971
000170 b6 f4 8d 3d 0c 9c b3 3c 78 a8 1a 3e 26 0c 54 3d
       0.069314405 0.021924995 0.15103328 0.0517694
000180 0a bf c1 bc 35 ea f1 3d 95 45 01 3e af 87 47 bd
       -0.023650665 0.118122496 0.126242 -0.048713382
000190 83 a2 ca bc d0 61 3e bd 4e b3 59 3d 30 e0 01 bd
       -0.024735695 -0.04648 0.053149514 -0.031707942
0001a0 07 96 0b bd 2d 4e da bc 62 08 ba 3b 51 bc e2 bc
       -0.034078624 -0.026648605 0.005677269 -0.027677687
0001b0 07 23 22 3d f4 c1 f4 bd 1e 35 f1 3d 82 e9 8c 3d
       0.039584186 -0.11951056 0.117777094 0.068804756
0001c0 8a 51 47 3e f0 e3 a0 3c 03 20 ed bb 3b b2 12 3e
       0.19464698 0.01963994 -0.007236482 0.14325802
0001d0 44 70 b3 bc 14 c6 d4 bc 53 2f b4 bb 89 f4 8d 3e
       -0.021904118 -0.025973357 -0.0054988055 0.27725628

fc2.weight f4 [84, 120]
000000 f2 9e 4e bd 29 1c fd 3b cd 74 a2 3d 1a 75 c9 3c
       -0.05044455 0.007724304 0.07932434 0.024591971
000010 0e d3 4d 3d cc ab 27 be 20 5a 40 bb 8b 33 d4 3d
       0.050250106 -0.16374129 -0.0029350594 0.103613935
000020 49 e5 8e 3d 15 3c 30 bc 70 4e 46 bc ca 85 ef 3c
       0.069773264 -0.010756512 -0.012103662 0.0292386
000030 77 ad 01 3e 0c 0d ac 3d 68 cd 1a bd d5 62 b8 bd
       0.12663828 0.08400926 -0.037793547 -0.09003226
000040 dd 47 92 bc f6 e1 25 3d 98 22 eb 3d af 63 85 3d
       -0.017856533 0.040498696 0.114812076 0.06513154
000050 b1 6d a4 bd 8f 8e 8f bd 80 5d b5 bc f4 90 c4 bd
       -0.080287345 -0.07009613 -0.02213931 -0.0959796
000060 9c 4d 08 be 6e df fb bd c3 76 ca bd 85 47 12 bd
       -0.13310856 -0.12298475 -0.09885933 -0.035712738
000070 01 f9 f4 bc 9a 66 8d 3c d5 d7 aa 3d 81 a8 de bc
       -0.02990389 0.017260838 0.08341948 -0.027179958
000080 71 50 1b be 9a 57 ec bc 59 da 4e 3d 17 b2 e5 3c
       -0.15167405 -0.028850365 0.0505012 0.028039021
000090 af 23 49 bd ae 2d 35 3e d9 f4 b1 bd 62 69 0b 3e
       -0.049106296 0.17693207 -0.08689279 0.13614419
0000a0 cf ea ff bd 8b 05 01 3d 7b 2d 5c 3d 40 74 40 be
       -0.12495958 0.031499427 0.05375431 -0.18794346
0000b0 d7 cb f9 bc 26 c3 83 bd 43 5e 88 3a 5c 7f 02 be
       -0.030492706 -0.06433706 0.0010404069 -0.12743896
0000c0 98 55 22 3d 24 93 e7 3b da 36 7c 3d 92 b1 6c bd
       0.03963241 0.007067101 0.061575748 -0.05778653
0000d0 dc d3 80 bd b3 fc 9d bd f4 70 17 3b 49 77 03 be
       -0.06290409 -0.07714214 0.0023108097 -0.12838472
0000e0 95 67 ba bc e7 bd df 3d 5e 83 89 3d 4c 39 e4 3d
       -0.02275447 0.10924893 0.067145094 0.11143741
0000f0 13 21 cc 3d 88 72 a7 3b fc f7 87 bd 01 dd 2d 3c
       0.09967246 0.0051100887 -0.06639096 0.0106117735
000100 ed 68 e7 bd e0 64 9e bc 93 30 c1 3c ee e5 a4 3d
       -0.1129931 -0.01933521 0.023582732 0.08051668
000110 a9 f6 a1 bd a9 fe b9 bc 17 51 cc bd 78 45 4a bd
       -0.07908375 -0.02270444 -0.09976404 -0.049382657
000120 08 8f bd bb 31 ab 15 3d 9d fa 44 3d df 07 eb bc
       -0.005784873 0.036540214 0.048090566 -0.028690277
000130 41 d5 87 3d f7 96 35 bd 15 9e 31 bd 03 0c 1c 3d
       0.06632472 -0.044333424 -0.04336365 0.038097393
000140 fc 0a a9 bd f1 9b ec bc ff 39 a7 3d c2 9d d4 bd
       -0.08254048 -0.028882952 0.08165359 -0.103816524
000150 65 c8 fc bc 67 1f 8a 3c 4e 0d d3 3c 39 4f 6f 3d
       -0.030857274 0.016860677 0.02576318 0.058425162
000160 79 de 7c 3d 7c 1a 8c bd b8 19 19 3d 8d 09 93 bc
       0.061735604 -0.06840989 0.037378043 -0.01794889
000170 a5 c8 eb 3d d6 de c6 bb 41 2c 83 bd 50 8a d0 bd
       0.11512879 -0.0060690446 -0.06404925 -0.10182631
000180 47 42 0c be aa c5 93 bc ba 6e 48 bd ca 5a 4c 3b
       -0.13697158 -0.01803859 -0.048933722 0.0031182044
000190 de 31 42 bd 5f 78 38 bd 50 2b 8c 3d 6a 90 04 3e
       -0.04741084 -0.04503667 0.06844199 0.12945715
0001a0 63 20 17 bd e6 50 ee 3d 5c a6 a4 bd d7 11 56 bc
       -0.03689612 0.11636524 -0.08039543 -0.013065777
0001b0 b8 77 bc bb 6a b9 3f 3d 4b ba 7c 3c 33 e5 dc bd
       -0.0057515763 0.046807684 0.015425275 -0.10785904
0001c0 4c ae 0e bd f5 3c a2 bc 37 69 ef bd a1 12 6d 3d
       -0.03483419 -0.019804457 -0.1168999 0.057879094
0001d0 e9 18 a8 bd f8 0d 10 3e 5c 96 ae bd 21 ba 18 be
       -0.08207876 0.14067829 -0.085247725 -0.14914753
0001e0 37 b2 9b 3d d8 35 8d 3d bb df 28 be ba cf 35 3d
       0.07602351 0.068950355 -0.16491596 0.044387557
0001f0 ce c2 8d bd ea ed 54 3d 29 f9 bf 3d c9 2c ef bd
       -0.06921922 0.051984705 0.093736954 -0.11678464
000200 d9 88 9e 3b 5d 01 cf bd 84 7f 71 3d d0 ae 31 3d
       0.004838091 -0.10107682 0.0589595 0.043379605
000210 87 3d a1 3c 4a 3a f0 bd fe d7 e2 3d e7 6e 54 bd
       0.019682659 -0.11729868 0.110763535 -0.051863577
000220 2b 7f 9a bc 20 2a 78 3d 4e 6c 3c 3c 8c 5c 7f 3d
       -0.018859467 0.06058705 0.011500431 0.06234412
000230 9e 09 53 bc 54 be 5f bc 73 b8 ad bd af 4f b4 bc
       -0.012880711 -0.013656218 -0.084824465 -0.022010652
000240 6a 69 c7 bc a7 d5 db 3d 07 76 5f 3c 21 87 d0 3d
       -0.024342258 0.1073411 0.01363898 0.10182024
000250 f3 94 45 bc b9 82 11 be 60 b9 61 bd 32 aa bb 3d
       -0.012059438 -0.14210023 -0.055108428 0.091633216
000260 a5 c5 df bd 6c 26 87 3d b5 58 c3 3c 2f fb fd b7
       -0.109263696 0.06599125 0.02384601 -3.0276917e-05
000270 d4 87 df bc bf 4a aa bc a6 45 b0 bd 91 a3 54 bd
       -0.027286448 -0.020787595 -0.086070344 -0.0519138
000280 e4 0b 80 3d 31 c6 17 bd 18 68 9c 3d 8d 9c 06 3e
       0.06252268 -0.037054244 0.07637042 0.13145657
000290 96 08 f8 3d e6 01 cf 3d 2d 55 12 b9 fc 2a 5c bd
       0.12111013 0.10107784 -0.00013955375 -0.05375193
0002a0 69 b2 17 be 96 b3 4d 3d 05 33 26 be b4 25 a3 bd
       -0.14814152 0.050220095 -0.162304 -0.07966176
0002b0 b2 9a b1 3d 58 2e 3c bd 63 78 c3 bd a4 26 b6 bd
       0.08672084 -0.045942634 -0.09544446 -0.08894089
0002c0 2a 0d a8 3c 24 0f bb bd f8 6f ab 3d 5a 72 33 3e
       0.02051409 -0.09133747 0.08370966 0.1752409
0002d0 e2 18 09 3c 25 4f 8d bc fb 3d 2f 3d 7a 84 8e 3d
       0.008367749 -0.017249653 0.04278372 0.06958862
0002e0 9d 24 0e 3e b6 1c 23 3d e6 ca d1 bd 9d a7 03 3d
       0.13881154 0.039822303 -0.10243778 0.03214227
0002f0 7d b2 31 bd 41 c7 bc 3c b2 e4 fb bc dd eb 1a 3e
       -0.04338311 0.02304423 -0.030748699 0.15129037
000300 c6 28 98 bd 39 0a e6 3c 01 bc 4f bd 11 b2 85 3d
       -0.07429652 0.028081046 -0.050716404 0.06528104
000310 16 1a 65 3d d3 eb a4 3d b5 cb 86 bd 06 7a 62 bc
       0.05593308 0.080527924 -0.06581823 -0.013823038
000320 2d 1f 48 3d a1 e7 38 3d ce d0 1e be 9b df ee bc
       0.048857857 0.045142774 -0.1550934 -0.029159358
000330 37 84 16 be 70 61 1e be 73 39 7d 3d f3 7a 3c 3d
       -0.14698873 -0.15466857 0.061822366 0.04601569
000340 61 4b 29 be 92 8a 70 bd 9d 47 5c bd a1 c9 c7 3b
       -0.16532661 -0.0587259 -0.053779233 0.006097034
000350 d8 c3 c7 bd 95 ca fb bc 51 2f e0 3d 67 cb ee 3c
       -0.09754151 -0.030736247 0.10946525 0.029149724
000360 57 13 46 3d 49 dd 0d 3d 8a 33 e5 3c a5 b9 a3 bd
       0.048358288 0.034634862 0.027978677 -0.07994393
000370 98 73 7b 3d 3a e4 fd 3d af fd 24 3d cb 3b ed 3c
       0.061389536 0.123970464 0.040280994 0.028959176
000380 14 8c 35 3d ea 1b 5a 3d 3c 66 4e 3d 59 10 ac 3c
       0.044323042 0.053249277 0.050390467 0.021003889
000390 09 64 5a bc 18 4b 93 bd 2b 7e 2c be 22 04 db 3d
       -0.013329514 -0.07192057 -0.16845004 0.10694148
0003a0 c2 06 d3 3c 52 2f f1 bc 51 32 ea 3d 11 ff a8 bd
       0.025760058 -0.02944151 0.11435378 -0.08251775
0003b0 64 5d 28 bd fd 82 f2 3c 7a 24 ca bd 06 c6 8e 3d
       -0.04110469 0.029603476 -0.098702386 0.06971364
0003c0 5f 4b ba bd 35 63 58 3d 04 16 9f bd c5 41 0e 3b
       -0.09096407 0.052828986 -0.07767871 0.0021706682
0003d0 cd c8 02 bd be a3 df 3d ae b8 96 3b 64 38 d0 3d
       -0.03192978 0.10919903 0.0045996523 0.10167006
0003e0 e5 f0 25 bd be 3b 54 bb 11 45 93 3d e2 64 59 bc
       -0.040512938 -0.0032384242 0.07190908 -0.013268681
0003f0 4e aa 6f 3c e5 1b ad ba fd 97 89 3d 4f f1 48 bd
       0.014628006 -0.0013207166 0.067184426 -0.049058255

fc2.bias f4 [84]
000000 3b 35 a4 3d cc 64 24 3c bd d7 21 3e b5 3b a9 bd
       0.080179654 0.0100337975 0.15804954 -0.08263341
000010 42 bb 97 3e 91 97 87 3c 7d c2 56 3e 78 59 ac 39
       0.29635054 0.016551765 0.20972629 0.00032873056
000020 59 64 e4 bd af c7 63 3e da 42 80 bd 05 26 29 bd
       -0.11151952 0.22244142 -0.06262751 -0.041296024
000030 33 1c 3c bd 62 a2 9e 3c ea b1 c8 3d 7f 89 8a bc
       -0.04592533 0.01936454 0.097995594 -0.016911266
000040 18 50 cf 3d 88 db 29 3e d6 61 da 3e 57 af 81 3d
       0.101226985 0.16587651 0.42652768 0.063322715
000050 c6 a6 b5 bd 02 42 42 bd d9 8f 8f 3c a4 26 49 3d
       -0.088697 -0.04742623 0.017524647 0.049109116
000060 b1 9e d2 3d 54 3b 14 3d 4a 9a 1a 3d a2 b4 69 3e
       0.10284174 0.036189392 0.037744798 0.22822812
000070 93 e3 16 3e 47 e7 97 3e 0d 8f ee bd 0a 48 b8 bd
       0.1473525 0.29668638 -0.116483785 -0.08998115
000080 e0 d3 4c bb cf 71 3b 3d 8d 36 a7 bc 43 33 ab 3c
       -0.0031254217 0.045762833 -0.020411754 0.020898467
000090 2f ac f0 3e 90 c6 47 3e 26 93 1e be 8b 59 52 3d
       0.47006366 0.1950934 -0.1548582 0.051354926
0000a0 8f 5c 6b 3d 29 36 10 bb b6 12 c3 3d 40 57 a8 3e
       0.057461318 -0.0022004938 0.09525053 0.32879066
0000b0 36 bc da 3e 7e de 79 3e 0c 9f b8 3d e2 01 ee 3d
       0.4272172 0.2440128 0.09014711 0.11621453
0000c0 31 b9 82 3e c4 b4 09 3e a8 f4 9f 3d 7f 4a 9b bc
       0.25531915 0.13447863 0.07810336 -0.018956421
0000d0 d8 57 3a 3e 8d 47 5c 3c 3c 1e d4 bd 23 ef 36 3e
       0.18197572 0.013444793 -0.10357329 0.17864661
0000e0 df 1c 09 be 20 d6 26 3d 46 49 97 bb ea eb 91 bc
       -0.1338992 0.04073155 -0.004616889 -0.017812688
0000f0 9f b9 5f 3e 3f 60 d3 bd 44 49 5d bd 30 5f 63 3e
       0.21848153 -0.10321092 -0.05402495 0.2220428
000100 4f f6 bc 3e fe b7 d2 bd 75 c6 b3 3d 44 87 42 3e
       0.3690667 -0.10289 0.08778087 0.18996912
000110 86 66 42 3d 9c 85 96 3e 99 35 fd bd 84 c4 11 ba
       0.047461055 0.2939881 -0.123637386 -0.0005560594
000120 1e 2b 32 b9 06 c7 be bc ca 40 52 3e cc 0a db 3c
       -0.00016991465 -0.023288261 0.20532528 0.026738547
000130 99 5c c8 3d f6 8e b3 3c ac 21 9b bc cc c1 17 3e
       0.097832866 0.021918755 -0.018936954 0.14820021
000140 a4 b2 d9 3d 06 1e 57 bd 2e e4 4b bd 47 fe b7 bd
       0.10629776 -0.052518867 -0.049778156 -0.089840464

fc3.weight f4 [10, 84]
000000 9f d7 9b bd 13 1f 18 3e 9c ae 31 bd fc 71 cc 3b
       -0.07609486 0.14855604 -0.04337941 0.006239174
000010 a9 85 96 3e a5 d4 09 3d cd 9b 81 3e 4c c4 1e bd
       0.2939885 0.03365006 0.2531418 -0.038761422
000020 55 2a d2 3b a2 c9 76 3e c0 b6 56 bc 7f 6c 05 bd
       0.006413738 0.24100354 -0.013105094 -0.032574173
000030 eb d2 49 3d 4b 68 12 be 37 cd 51 3e 78 b3 19 be
       0.049273413 -0.14297597 0.2048844 -0.15009868
000040 8b f3 f7 bd d5 68 6b be 09 16 08 be af 23 95 bd
       -0.12106999 -0.22989209 -0.13289656 -0.07282197
000050 0e 6c 5a 3d 14 20 3e 3e bd b4 1a bd 8e 61 8e bd
       0.053325705 0.18566924 -0.03777002 -0.06952201
000060 3a d2 8b 3e a7 d5 30 3e cd 53 25 be 31 59 0b 3d
       0.27308828 0.17269002 -0.16145249 0.034020606
000070 43 80 1b bd f4 80 5d be 77 b0 08 3e f3 be 03 3e
       -0.037964117 -0.21631223 0.13348566 0.1286581
000080 a4 15 f9 bd 7f ff 43 3d 6c 94 dc bc ad 44 be 3d
       -0.12162331 0.047851082 -0.026926242 0.092904426
000090 78 4a ba be 4a 81 bc bc 56 36 20 3e e3 7c 4b 3d
       -0.3638494 -0.023010869 0.15645728 0.049679648
0000a0 a4 a2 7b 3e 2a d8 c7 3c fd 7b b2 3d d1 32 58 bd
       0.24573761 0.024395067 0.08715055 -0.052782837
0000b0 bd a6 4a 3b 96 b2 29 3d 5c 36 34 3d ed ef 4e 3e
       0.0030922138 0.04143008 0.043997154 0.20208712
0000c0 41 a7 4d bd 04 4a a7 bd a1 1b 8f bd 97 1b 69 bd
       -0.050208334 -0.08168414 -0.06987692 -0.056911077
0000d0 98 d1 15 bd 4b 63 ba bd 06 64 81 bd 92 43 bc bd
       -0.036576837 -0.0910097 -0.06317906 -0.091925755
0000e0 93 af 9b 3e 6d f0 5a 3e 59 29 bb bd c6 8e 50 3d
       0.3040739 0.21380778 -0.09138746 0.05091741
0000f0 d1 df ee bd ed 11 41 3c 89 9b b2 bd 19 e5 5f bd
       -0.11663783 0.011784059 -0.08721072 -0.054661844
000100 00 cc 9d be 02 61 4b 3e 9f c5 03 3e ff 2a 78 be
       -0.30819702 0.19861224 0.12868355 -0.24235152
000110 7d e2 32 bd 74 17 2f be 93 7b 2a 3e 61 04 23 bd
       -0.043673027 -0.1709879 0.16648702 -0.039799098
000120 c7 92 42 3d b4 cc ff bc 2a 92 3e bd f4 f4 d8 3c
       0.04750326 -0.03122554 -0.04652611 0.02648399
000130 78 5d da 3d 02 f0 c6 3d c5 99 af bc a8 4a c9 bc
       0.10662359 0.097137466 -0.021435628 -0.024571732
000140 2d bc 1b 3e f0 01 ed bd d9 7c 75 bc fa d3 7c 3d
       0.15208502 -0.11572635 -0.014983379 0.061725594
000150 54 30 29 be a6 d2 07 be 3c 6b cb bd 2d 21 bc 3d
       -0.16522342 -0.1326395 -0.09932563 0.09186015
000160 5e 2b 61 be 64 3f b1 3d f4 85 23 bc b2 ef 96 bd
       -0.219892 0.08654669 -0.009980667 -0.07369937
000170 c3 3f 18 3c f0 06 3c 3e b2 07 c6 3d 27 c7 3b 3d
       0.009292546 0.18362021 0.096694365 0.045844223
000180 1b d5 88 3e 96 d1 54 3e 10 d2 5d be ce 38 ad 3c
       0.26725087 0.20783076 -0.21662164 0.02114525
000190 55 17 7e 3d 71 56 97 3d fc 32 7e be d9 44 e6 3d
       0.06203397 0.07389534 -0.24824136 0.112436004
0001a0 fd 25 a3 bc c0 64 10 3e 64 9c 51 3e bb 59 b7 be
       -0.019915575 0.14100933 0.20469815 -0.35810646
0001b0 ae c6 41 bd 8b d5 a8 bd b9 09 11 3c 34 6e 62 be
       -0.047308616 -0.08243855 0.008852416 -0.22112352
0001c0 11 3a d9 3a ae 4f ed bd 52 dc e1 3d b8 f6 73 3d
       0.0016573091 -0.11587463 0.11028351 0.05956146
0001d0 e0 3b 1c bd 7a 22 2c bd 26 85 71 bd 32 36 ad bc
       -0.03814304 -0.042025067 -0.05896487 -0.021144006
0001e0 72 1e 50 be cd dd 1e be c1 f4 51 3e 31 06 51 3d
       -0.20324114 -0.15514298 0.20503522 0.051031295
0001f0 8b d4 89 3e d1 d2 32 ba c0 30 99 be 87 c7 0f be
       0.2691997 -0.0006821575 -0.29920006 -0.14040957
000200 82 c5 87 be 82 62 82 be c0 39 ad 3d a6 d9 01 3e
       -0.26517874 -0.2546578 0.084582806 0.12680683
000210 b5 00 02 be ea 6a b9 bd 7a 22 81 3e 88 11 de bc
       -0.12695582 -0.09053595 0.25221616 -0.027107969
000220 0a e2 85 3d 73 20 d0 3d bf a7 b4 3d ee f8 56 bd
       0.06537254 0.10162439 0.088210575 -0.05248349
000230 a1 48 e6 bd 51 06 92 3d 14 3d c4 3c 80 80 c8 bc
       -0.112443216 0.07130111 0.023954906 -0.024475336
000240 d2 e7 0a 3d 27 68 8c 3c 08 9f 5e 3d 8a 63 1e be
       0.033912487 0.017139507 0.054350883 -0.15467659
000250 c3 72 10 bd 68 b0 b4 ba 34 d5 d3 3e 36 9f c8 bd
       -0.035265695 -0.0013785483 0.413736 -0.09795992
000260 d9 c6 c0 3c 06 2f fa bd 58 4e 95 bb bd d1 b9 3b
       0.023532318 -0.12216 -0.0045564584 0.0056707547
000270 63 48 7e 3c db 79 aa bd e2 c6 6b 3d 08 5c 1f 3e
       0.015520188 -0.08324023 0.057562716 0.15562451
000280 95 d1 df bd 4c 8b 64 3e 7e 86 b5 3d 6c 5b 6e be
       -0.109286465 0.22318763 0.08863543 -0.23277062
000290 90 84 90 3e 6f 9d 80 3e 1a c6 ad 3d f0 0d ba 3d
       0.28226137 0.25120112 0.084850505 0.090846896
0002a0 7d 5d cc 3d b2 b1 bc 3d 9c e9 ee 3d 66 7a ab 3d
       0.09978769 0.0921358 0.11665651 0.08372955
0002b0 a8 a4 97 3e c7 35 81 bc 7c f3 c0 3d bf 54 22 bd
       0.2961781 -0.015772713 0.09421441 -0.0396316
0002c0 14 7e d7 3d d5 b0 22 bd 55 cf d5 bd 07 1e bf 3d
       0.10522094 -0.03971942 -0.10439936 0.09331899
0002d0 04 e7 69 3c ff 22 92 bd ab eb 87 3d b7 60 8c bd
       0.01427627 -0.07135581 0.06636747 -0.068543844
0002e0 84 d9 14 3e cb ce 7c 3a 39 66 dc bc 4e 18 e5 3d
       0.145361 0.00096438517 -0.026904212 0.111862764
0002f0 90 b0 b2 3d c0 ec 4c 3d d0 a0 55 3c f9 87 05 3e
       0.08725083 0.05003047 0.013038829 0.1304015
000300 ef 14 89 3e 4c b0 2c 3e f1 ef 50 3d bd 7e b9 3d
       0.26773784 0.16864127 0.051010076 0.090573765
000310 a8 e1 fa 3d 42 0b 5a 3e 3e cd 8b 3e 33 0c 98 be
       0.12250072 0.21293357 0.27305025 -0.29696807
000320 43 dd 1f be 98 21 ec bd ea 52 37 bd 4e c3 a0 bd
       -0.15611748 -0.11529845 -0.044756807 -0.078497514
000330 9a 51 06 3e ac 62 03 3e 94 7d 03 bd c7 6e e1 bd
       0.13117066 0.12830609 -0.032102183 -0.11007457
000340 90 5a 84 bd 9c 93 c6 bd 6c b3 95 3e ff 7c 03 3e
       -0.06462586 -0.09696123 0.2923845 0.12840651
000350 4c ec db 3d ff d0 18 bd 1f 3a 1b bd c5 ee 2d bc
       0.107384294 -0.03730869 -0.037897225 -0.010616009
000360 74 b6 20 bd ea 2b 70 3d b1 f7 f5 3c db 8d 85 3c
       -0.0392365 0.05863563 0.030025335 0.016302994
000370 50 c4 5c be 15 95 14 be be 07 29 3d d5 8f 84 3b
       -0.21559262 -0.14509995 0.04126715 0.0040454664
000380 8a 6a 4a 3e fe d1 f0 bd 2c 18 59 bd 3e b0 88 bd
       0.19767204 -0.11758803 -0.053001568 -0.066742405
000390 6e 13 30 3e 5e 18 c3 3d ee 40 02 3b 30 1b da 3c
       0.17194912 0.09526132 0.0019875127 0.026624292
0003a0 32 8b cd bc a5 2f 75 bd 29 07 e2 bd e1 29 20 be
       -0.025090788 -0.05985989 -0.11036522 -0.15640976
0003b0 d4 28 f4 bd 04 72 d6 3c f1 b3 e1 3c 75 47 20 bd
       -0.1192185 0.026177414 0.027551623 -0.039130647
0003c0 01 a7 53 bd 22 62 44 3c 21 66 a4 3e 84 38 12 be
       -0.05167294 0.011986287 0.32109168 -0.14279372
0003d0 c5 2e 36 bc dd 54 1a be 11 64 00 be 94 b5 c5 3d
       -0.011119549 -0.15071435 -0.12538172 0.09653774
0003e0 e8 f9 42 be 54 88 7e 3d 1a 69 37 3d e4 ae 82 3d
       -0.19040644 0.06214173 0.044777967 0.06381014
0003f0 52 5e 1a 3e 30 0d 1a be 1e 89 d0 3c ac 4d cd 3c
       0.15075043 -0.15044093 0.025456008 0.02506145

fc3.bias f4 [10]
000000 d3 1c b8 be 5b b8 09 bf 25 c9 6b bd 37 fa 66 3e
       -0.3595949 -0.5379693 -0.057564873 0.22556387
000010 2f ac f6 3e 0f b5 a4 bd 2a 2c d5 3e 19 6c 2f be
       0.4817824 -0.08042347 0.41635257 -0.1713108
000020 43 13 19 3e 55 fa 28 be
       0.14948754 -0.16501744
