deep-learning/cnn-cifar10/cifar_net.pth (torch, 251732 bytes, 10 tensors)

conv1.weight f4 [6, 3, 5, 5]
-0.18424618 -0.17382579 -0.15589641 -0.07796163 -0.20914085 -0.25326732 -0.17807186 -0.18794866
-0.30263686 -0.2784973 -0.11029477 -0.12407536 -0.1604623 -0.10913818 -0.17621952 -0.19444183
-0.22255777 -0.19199312 -0.12652664 -0.18221731 -0.23346797 -0.115086846 -0.10237227 -0.094324574
-0.30446005 0.09610883 -0.031264547 0.06711645 -0.1131685 -0.021643126 -0.02630405 0.049034044
-0.1314247 0.004262849 0.007978658 0.1666195 0.10939714 0.16030282 -0.026182517 0.07794781
0.06689149 0.0283523 0.16122486 0.009748858 0.02012132 -0.09052201 -0.075026326 -0.01346592
-0.12555876 -0.05669084 0.18450716 0.29051596 0.19258642 0.15631936 0.02755747 0.18824305
0.09579828 0.21355991 0.19196609 0.14352977 0.19138718 0.30322388 0.3642083 0.3062882
0.17492522 0.18285361 0.30703148 0.105727606 0.27477375 0.1881628 0.08225549 0.11259006
0.110790856 0.025830189 0.058481697 0.12293153 -0.06466405 -0.06242418 -0.013201223 -0.04389486
-0.28471866 -0.6568588 -0.675483 -0.53888124 -0.33135042 -0.10100445 -0.1192296 0.0817155
0.05112894 0.064937234 0.22966196 0.40996733 0.56172657 0.44694287 0.3331942 0.26812166
0.26230338 0.19024277 0.07752759 -0.00924441 0.23506245 0.077845775 0.06805531 0.22622356
-0.021921221 -0.37788722 -0.5166268 -0.60190785 -0.476226 -0.13759065 -0.014690234 0.09333834
-0.00091820274 0.17049788 -0.016577654 0.006194148 0.35280073 0.45487887 0.21157685 0.14672199
-0.068744026 -0.08854415 -0.16496682 -0.064855285 -0.08482869 0.25442576 0.38098025 0.28424263
0.20707205 0.3641736 -0.1865696 -0.30398914 -0.43569618 -0.2679891 -0.13147928 0.023012055
0.07589942 0.05955602 0.16148627 -0.0123168705 -0.01583149 0.23314586 0.38954872 0.21288493
0.0002826076 -0.049330242 -0.23241709 -0.32843226 -0.23914237 -0.11381009 -0.17940193 -0.04651187
-0.12122375 0.037852928 0.116269656 -0.06815711 -0.09448729 -0.09494381 0.051426385 0.05827324
-0.09946716 -0.023141537 0.03420216 0.04826831 0.15712377 0.10562811 0.001941436 0.13191153
0.0582956 0.07203573 0.1868914 0.14364499 0.2186323 0.06992116 0.10892235 -0.17090705
-0.09657105 -0.057618987 0.0425951 -0.055818714 -0.13950883 -0.036297966 -0.045430187 0.1156982
0.100821316 -0.0013213536 -0.023644079 0.0705602 0.17218369 -0.05432172 -0.14266762 0.010953059
-0.082571626 0.032326754 -0.030785894 -0.0092417 -0.002455184 -0.009337027 0.066433705 -0.025195377
-0.06063957 0.0061315675 0.17841507 0.33173034 0.22611241 -0.10278455 -0.02191592 0.2788924
0.24326727 0.13487956 -0.15999864 0.109212704 0.23711345 0.37684265 0.13552716 -0.03505584
0.09965886 0.16751152 0.21649238 0.033928234 -0.16347387 0.057525966 0.094390094 0.04809427
-0.051718425 -0.16228361 0.027053667 -0.15944959 -0.048937026 0.150253 -0.044542 0.25348732
-0.26826748 -0.560101 0.29791936 0.047901653 0.16530913 0.09159297 -0.55878025 -0.03194047
-0.026076727 -0.036007766 0.4111016 -0.10623078 -0.2921756 -0.16741024 -0.100770384 0.21332309
-0.032974966 0.018026559 -0.06536424 0.24398991 0.034430426 -0.09325239 0.38314673 0.08197135
00000000: 08ab 3cbe 63ff 31be 4fa3 1fbe 59aa 9fbd
00000010: 0529 56be 41ac 81be 7858 36be 9d75 40be
00000020: 38f3 9abe 3397 8ebe 39e2 e1bd 391b febd
00000030: 3b50 24be d783 dfbd e472 34be c21b 47be
00000040: 2fe6 63be d899 44be 3390 01be 2d97 3abe
00000050: 3a12 6fbe a7b2 ebbd 8da8 d1bd 3e2d c1bd
00000060: 30e2 9bbe b5d4 c43d 410f 00bd 5974 893d
00000070: e3c4 e7bd ed4c b1bc 977b d7bc ecd7 483d
00000080: 3294 06be 5faf 8b3b ebb8 023c 4d9e 2a3e
00000090: 9c0b e03d 6c26 243e b87c d6bc 1aa3 9f3d
000000a0: 68fe 883d 1543 e83c 2118 253e adb9 1f3c
000000b0: 77d5 a43c 9b63 b9bd 67a7 99bd 2aa0 5cbc
000000c0: 7a92 00be a734 68bd 72ef 3c3e 82be 943e
000000d0: 6035 453e 2f12 203e 34c0 e13c c9c2 403e
000000e0: e331 c43d 73af 5a3e c292 443e 78f9 123e
000000f0: 00fb 433e 2940 9b3e 8379 ba3e cfd1 9c3e
00000100: 991f 333e fa3d 3b3e 3b33 9d3e b787 d83d
00000110: 25af 8c3e c0ad 403e 9175 a83d 9e95 e63d
00000120: 51e6 e23d d599 d33c 818a 6f3d 87c3 fb3d
00000130: 966e 84bd 7fb0 7fbd f149 58bc 19cb 33bd
00000140: a5c6 91be e627 28bf 74ec 2cbf 1ff4 09bf
00000150: c3a6 a9be 6cdb cebd a62e f4bd 755a a73d
00000160: 946c 513d d0fd 843d 812c 6b3e 3de7 d13e
00000170: 50cd 0f3f b2d5 e43e 6e98 aa3e 3e47 893e
00000180: a14c 863e 00cf 423e c9c6 9e3d de75 17bc
00000190: 36b4 703e 9b6d 9f3d 9560 8b3d 26a7 673e
000001a0: 2294 b3bc 6f7a c1be a741 04bf a216 1abf
000001b0: e5d3 f3be 90e4 0cbe 4faf 70bc 2c28 bf3d
000001c0: 8bb3 70ba ff96 2e3e dccd 87bc 48f8 ca3b
000001d0: 4ca2 b43e e2e5 e83e 9aa7 583e 4a3e 163e
000001e0: abc9 8cbd a356 b5bd 10ed 28be d9d2 84bd
000001f0: aaba adbd 1844 823e d80f c33e 4088 913e
00000200: b20a 543e f674 ba3e 1a0c 3fbe 77a4 9bbe
00000210: 9213 dfbe de35 89be 81a2 06be c783 bc3c
00000220: 2871 9b3d 03f1 733d a85c 253e b3cc 49bc
00000230: 0ab1 81bc cabd 6e3e ee72 c73e 82fe 593e
00000240: f32a 9439 820e 4abd bffe 6dbe 4628 a8be
00000250: bde1 74be 4415 e9bd 24b5 37be 3b83 3ebd
00000260: 2844 f8bd ac0b 1b3d c91e ee3d f495 8bbd
00000270: 8d82 c1bd e671 c2bd 79a4 523d ecaf 6e3d
00000280: 70b5 cbbd 5293 bdbc 9017 0c3d feb4 453d
00000290: 0ee5 203e 8d53 d83d c877 fe3a d113 073e
000002a0: 5ec7 6e3d 7887 933d 7660 3f3e ac17 133e
000002b0: 25e1 5f3e d332 8f3d ae12 df3d 4202 2fbe
000002c0: 0bc7 c5bd e301 6cbd 3378 2e3d 2aa2 64bd
000002d0: 67db 0ebe 2dad 14bd 0115 3abd 2ef3 ec3d
000002e0: 687b ce3d 4531 adba 3ab1 c1bc de81 903d
000002f0: ec50 303e 7480 5ebd 7617 12be 7674 333c
00000300: 501b a9bd 0f69 043d b332 fcbc 806a 17bc
00000310: 27e7 20bb 54fa 18bc 650e 883d 8966 cebc
00000320: 3361 78bd 51eb c83b 71b2 363e 8fd8 a93e
00000330: 038a 673e b580 d2bd 0489 b3bc fcca 8e3e
00000340: 0e1b 793e de1d 0a3e afd6 23be e9aa df3d
00000350: decd 723e 85f1 c03e a2c7 0a3e b696 0fbd
00000360: f219 cc3d 2488 2b3e 2eb0 5d3e 55f8 0a3d
00000370: b265 27be 59a0 6b3d 984f c13d 7ffe 443d
00000380: b3d6 53bd ad2d 26be a79f dd3c c146 23be
00000390: 3172 48bd ecdb 193e ac71 36bd 17c9 813e
000003a0: 5b5a 89be c762 0fbf e388 983e 8634 443d
000003b0: cc46 293e 1895 bb3d 390c 0fbf 03d4 02bd
000003c0: dc9e d5bc e17c 13bd e97b d23e 868f d9bd
000003d0: 0a98 95be 976d 2bbe b460 cebd 5e71 5a3e
000003e0: c210 07bd 6fac 933c b0dd 85bd 7ed8 793e
000003f0: eb06 0d3d 1cfb bebd cf2b c43e 98e0 a73d

conv1.bias f4 [6]
0.39679173 -0.32408217 0.10463956 0.052669663 -0.2143939 -0.32228097
00000000: 4928 cb3e 19ee a5be 444d d63d 25bc 573d
00000010: 138a 5bbe 0302 a5be

conv2.weight f4 [16, 6, 5, 5]
-0.26427242 -0.22130418 -0.04280398 -0.12566657 0.057951503 0.0047472604 -0.023346582 0.048702147
0.021190884 -0.0669871 -0.0060371025 0.09236067 -0.0033279324 0.027272724 0.0003215768 -0.055476494
0.05903074 0.041971657 0.03941712 0.17151304 -0.00046410438 0.004759654 0.14700037 0.059723735
0.20311983 0.24882403 0.3321386 0.16813868 -0.12762342 -0.037793953 0.06759017 0.21292968
0.036835767 0.026867002 0.09494288 -0.0021686086 -0.0104315225 -0.059470236 -0.013302953 0.09291689
0.053072587 0.0585907 -0.16055205 -0.13287994 -0.08607392 0.114256784 0.123308174 -0.060105976
-0.17028636 -0.107066125 0.093459755 -0.03383468 0.020281497 0.015016715 -0.043657653 -0.038961727
0.08568181 -0.0077814646 -0.05154925 -0.053547442 0.010463023 -0.043398507 0.023410864 -0.0876912
-0.053066768 -0.048523135 -0.08817057 0.075739905 0.017112242 0.09234194 0.0054930444 -0.008127078
0.03467711 0.099670365 0.12185736 0.44567013 0.25552127 0.08405953 -0.04259591 -0.024493886
-0.055512656 0.11753231 0.13898283 0.06578798 0.015971275 -0.20894335 -0.2606226 0.02932858
-0.010661031 0.043611817 -0.0386082 -0.19656216 -0.20900133 -0.0049573737 -0.07137025 -0.0060532386
0.025864862 -0.0988137 -0.046334248 0.012995243 -0.12823093 -0.05606815 0.08273367 -0.01816653
-0.16138741 -0.06788388 -0.19579656 -0.22191617 -0.2329747 -0.13413389 0.01694944 -0.042623803
-0.12171915 -0.09702495 -0.055331763 -0.03575148 0.07575624 0.101818554 0.006536717 -0.03061401
0.12052541 0.055878974 0.082046434 0.10386486 0.06761329 0.0040335474 0.019234683 -0.05886092
-0.16887844 -0.15201172 0.018267497 -0.028657993 0.018764293 -0.04818627 -0.07985518 0.0056876396
0.11412381 -0.026460314 -0.051634315 -0.06507232 0.1245699 0.06939767 0.08722451 0.11742737
-0.0024258243 0.056562554 0.025359666 0.03713079 -0.028344402 0.027710611 -0.049586266 -0.039603636
-0.030768925 -0.023688424 -0.042203452 0.029130815 -0.05312567 -0.03047613 0.027213065 -0.023150416
0.02646457 0.047663223 -0.021009045 -0.03849487 0.026873853 -0.0289886 0.04799791 0.043479547
0.024806052 -0.07949344 -0.05554581 -0.035860118 -0.030047808 -0.049254626 0.015114702 0.10545381
-0.015035351 0.07104295 0.028556159 0.014192887 -0.036870487 -0.027976247 -0.084424 -0.10172438
-0.06839406 0.009036667 -0.016455172 -0.11923001 -0.07894717 -0.032299444 0.1252695 -0.050624467
-0.0015485012 0.062452503 -0.03925518 0.084763594 -0.009931243 0.005996367 -0.035398245 0.008313436
0.07252196 0.038039427 0.078348696 -0.009838185 -0.032378677 0.048794754 -0.0051285075 -0.0508417
0.05432879 -0.022769427 -0.09446598 0.008256923 -0.110988796 0.07213465 -0.08861041 0.029319882
-0.09881104 0.017742123 -0.056757484 -0.11151614 0.06284611 -0.05629709 -0.078443535 0.112330645
-0.09042927 -0.08988488 -0.08162263 -0.17172895 -0.07918385 0.056982525 -0.20748809 0.07625068
-0.14960665 -0.1171096 -0.07422345 -0.060882557 0.17648682 -0.090458475 -0.05257982 0.16793485
-0.05427953 0.10230646 -0.016329566 0.010261421 0.12364888 -0.03772243 0.013457467 -0.04031093
-0.027512275 0.16617459 0.03611964 0.045525987 -0.016715918 0.015127457 0.066480145 0.1271114
00000000: b74e 87be 909d 62be 3a53 2fbd bdae 00be
00000010: 8e5e 6d3d e88e 9b3b 5541 bfbc e77b 473d
00000020: 8198 ad3c 8830 89bd e3d2 c5bb 9727 bd3d
00000030: 7119 5abb 0c6b df3c 4f99 a839 523b 63bd
00000040: 38ca 713d 79ea 2b3d d973 213d 1da1 2f3e
00000050: 0953 f3b9 dff6 9b3b 4487 163e e0a0 743d
00000060: a5fe 4f3e bacb 7e3e 120e aa3e 8c2c 2c3e
00000070: b7af 02be d5cd 1abd b76c 8a3d 3d0a 5a3e
00000080: 1ae1 163d 3018 dc3c 6a71 c23d 371f 0ebb
00000090: fae8 2abc 1097 73bd a1f4 59bc 364b be3d
000000a0: a462 593d cdfc 6f3d c267 24be ae11 08be
000000b0: 8647 b0bd 76ff e93d ff88 fc3d af31 76bd
000000c0: 8c5f 2ebe 7c45 dbbd d467 bf3d 3c96 0abd
000000d0: 6225 a63c ab08 763c 5ed2 32bd 5596 1fbd
000000e0: f279 af3d a8fb febb 4e25 53bd 9054 5bbd
000000f0: 196d 2b3c a2c2 31bd 24c8 bf3c 7297 b3bd
00000100: 8a5c 59bd 32c0 46bd c692 b4bd 861d 9b3d
00000110: f92e 8c3c c51d bd3d fffe b33b 7027 05bc
00000120: 9609 0e3d fa1f cc3d 5a90 f93d e02e e43e
00000130: afd3 823e 6727 ac3d 0d79 2ebd 67a7 c8bc
00000140: 3d61 63bd c8b4 f03d 8451 0e3e d9bb 863d
00000150: 31d6 823c 3ff5 55be 5370 85be 7d42 f03c
00000160: 9bab 2ebc 4ea2 323d a223 1ebd 9747 49be
00000170: 7204 56be 7771 a2bb 912a 92bd 3f5a c6bb
00000180: 8ce2 d33c d65e cabd fbc8 3dbd 00ea 543c
00000190: f84e 03be b7a7 65bd 4570 a93d fad1 94bc
000001a0: be42 25be b406 8bbd e57e 48be fe3d 63be
000001b0: eb90 6ebe 655a 09be 8dd9 8a3c 4c96 2ebd
000001c0: e447 f9bd 04b5 c6bd 8fa3 62bd 2570 12bd
000001d0: 1626 9b3d 3f86 d03d f531 d63b 3bca fabc
000001e0: 07d6 f63d 5ae1 643d f607 a83d 1ab7 d43d
000001f0: d678 8a3d d92b 843b 0e92 9d3c 2618 71bd
00000200: 78ee 2cbe f6a8 1bbe b8a5 953c 2bc4 eabc
00000210: 93b7 993c f75e 45bd 1d8b a3bd 615f ba3b
00000220: beb9 e93d 4dc3 d8bc 817e 53bd a344 85bd
00000230: 811e ff3d 5e20 8e3d c4a2 b23d c37d f03d
00000240: 94fa 1ebb 23ae 673d 13bf cf3c 7516 183d
00000250: 8532 e8bc 5d01 e33c f81a 4bbd 6c37 22bd
00000260: 1d0f fcbc 3a0e c2bc 87dd 2cbd bfa3 ee3c
00000270: 4d9a 59bd 14a9 f9bc efed de3c f1a5 bdbc
00000280: 3acc d83c 833a 433d 291b acbc ccac 1dbd
00000290: 8e26 dc3c 8079 edbc 7599 443d 9c17 323d
000002a0: 1036 cb3c 75cd a2bd 0184 63bd 0fe2 12bd
000002b0: d226 f6bc 38bf 49bd a8a3 773c 2bf8 d73d
000002c0: d556 76bc f77e 913d 9bee e93c 4889 683c
000002d0: 8205 17bd 712e e5bc 7de6 acbd df54 d0bd
000002e0: 2f12 8cbd 870e 143c ffcc 86bc dd2e f4bd
000002f0: 0eaf a1bd 6c4c 04bd a646 003e 9a5b 4fbd
00000300: 14f7 caba 32ce 7f3d 0aca 20bd 8998 ad3d
00000310: a7b6 22bc 2c7d c43b c0fd 10bd 1435 083c
00000320: 6586 943d 3bcf 1b3d 4875 a03d 5730 21bc
00000330: 819f 04bd 02dd 473d 0a0d a8bb 633f 50bd
00000340: de87 5e3d f386 babc 6177 c1bd 0c48 073c
00000350: 184e e3bd 55bb 933d 6079 b5bd 4030 f03c
00000360: 715d cabd ee57 913c 897a 68bd 9362 e4bd
00000370: 76b5 803d c797 66bd 01a7 a0bd 9c0d e63d
00000380: fb32 b9bd 9015 b8bd c429 a7bd b7d9 2fbe
00000390: 242b a2bd 8266 693d c277 54be 5129 9c3d
000003a0: 7c32 19be 28d7 efbd 7702 98bd fd5f 79bd
000003b0: f6b8 343e 4b42 b9bd f05d 57bd 1df7 2b3e
000003c0: 3654 5ebd 0d86 d13d 95c5 85bc 851f 283c
000003d0: a03b fd3d d682 1abd b57c 5c3c 131d 25bd
000003e0: 6c61 e1bc ac29 2a3e 30f2 133d 7579 3a3d
000003f0: d2ef 88bc 27d9 773c be26 883d 7e29 023e

conv2.bias f4 [16]
-0.024127513 -0.13060936 0.03543817 -0.65883833 0.20390047 0.093676075 -0.34508795 0.20975645
-0.07106071 0.009321939 -0.012127165 -0.24035294 -0.15642223 0.13105318 0.9129729 0.7487289
00000000: 10a7 c5bc 76be 05be 9d27 113d a1a9 28bf
00000010: 49cb 503e 3ed9 bf3d 5eaf b0be 65ca 563e
00000020: 4788 91bd 0cbb 183c 04b1 46bc 151f 76be
00000030: 262d 20be ce32 063e 98b8 693f b2ac 3f3f

fc1.weight f4 [120, 400]
-0.041358426 -0.06649159 -0.050189454 -0.062427457 -0.021494053 0.012434373 -0.004292556 -0.0015250765
-0.047529697 -0.041015044 0.019580519 0.06485774 0.07105691 0.08412004 0.0613777 0.043418154
0.022182072 -0.042067405 -0.008842641 0.07561369 -0.014779354 0.018296173 0.044961076 0.025467288
0.000999477 0.0018258813 -0.034936152 -0.014088925 -0.034437913 -0.045249444 -0.019466292 0.0041741305
-0.034386326 0.0067137014 -0.005909957 0.049192753 -0.01005422 -0.01819275 -0.006777678 -0.050277356
-0.0023919845 -0.040416434 -0.001806947 -0.035021417 -0.005311542 -0.050166335 0.0060068476 -0.04838228
0.03184257 0.03668225 0.013751842 -0.037114788 0.012917309 0.04248695 0.037105795 0.025549412
-0.005298373 -0.035485033 -0.04916901 0.015925948 0.024050303 0.041128475 -0.011013211 -0.020684471
0.025752401 0.0019876333 -0.00554454 0.04905265 -0.025961524 0.0095795095 0.030636111 0.0040611676
-0.03913048 0.019009104 0.0038275868 0.05598435 0.06378081 0.09112165 0.045635305 0.07478546
0.0009560884 -0.01456578 -0.028375681 0.030176107 0.035495132 0.018818451 0.018561017 0.040631518
-0.0044078217 0.015014701 -0.016562456 -0.039428104 -0.04241357 0.015376237 -0.08654595 -0.012340787
-0.0969158 -0.05480818 -0.066653386 -0.07537396 -0.023083625 -0.054554995 -0.04138173 0.04373057
0.050167467 0.0180132 -0.0006738935 0.016371563 0.013002742 0.03675556 0.05492797 0.0257122
-0.009107928 -0.00818689 0.02823553 0.047337703 0.001303892 -0.032798823 -0.02043985 -0.041539647
-0.01050028 0.022774165 -0.016107854 -0.06884129 0.044540256 -0.032000937 0.022444425 -0.019172618
-0.07291236 -0.0553317 0.030113626 -0.026845071 -0.007730137 0.027436689 0.0231231 -0.00046684575
-0.02229618 -0.014729892 -0.024638107 0.02329886 0.033197593 -0.017750695 0.05416351 -0.03215564
-0.0014295558 -0.0036660843 0.023957118 0.050846577 -0.023961533 0.040223394 -0.0040255445 0.00095765287
0.00537055 -0.058929518 0.028462624 0.035262268 -0.00019371361 -0.037081376 -0.010301672 0.028834542
0.011640207 -0.02437701 -0.05335644 0.013722206 0.021860782 -0.042856406 0.023790285 -0.066351905
0.012941169 -0.0012191515 -0.056815922 -0.082617186 -0.07855162 -0.0824826 -0.008299707 0.04671772
-0.015631912 -0.04029704 0.037441164 0.06551512 0.03234764 -0.04754538 0.007109681 -0.04589835
0.008412951 -0.06453661 -0.002024103 0.02100487 -0.03818713 0.008024877 -0.0043593002 -0.03184647
0.01270769 0.013435372 0.015286502 0.04318661 0.005053804 0.08447686 0.06570316 0.019935053
-0.00033763784 0.020380387 0.020002678 -0.009260855 0.08039604 0.074730545 0.014140722 0.08335369
0.00820332 0.09710789 -0.0027587265 -0.026573205 -0.023832902 0.02778399 0.01632614 -0.10565065
-0.029543411 -0.044005763 -0.04656582 -0.035850942 -0.08772721 -0.11353434 -0.03557874 -0.12437993
-0.14127834 -0.022930205 -0.07496261 0.0353206 0.060665127 0.09113776 -0.052669216 0.028630223
-0.010919757 0.002716061 -0.0013709946 0.05296813 -0.0048166797 -0.024786517 -0.0063079526 0.03928498
0.036732323 -0.030352652 0.0074274563 -0.07022832 0.030982407 -0.042139396 0.034481738 -0.056695502
-0.0051246327 -0.02248519 0.060681015 0.036354106 0.03203919 -0.06728285 -0.0072932555 -0.020712435
00000000: 7467 29bd be2c 88bd 7593 4dbd efb3 7fbd
00000010: 4c14 b0bc 8ab9 4b3c 92a8 8cbb 13e5 c7ba
00000020: 80ae 42bd 64ff 27bd 5367 a03c 23d4 843d
00000030: 4986 913d 2147 ac3d 2f67 7b3d 3cd7 313d
00000040: 2db7 b53c df4e 2cbd b9e0 10bc 5adb 9a3d
00000050: 1b25 72bc dbe1 953c 1b29 383d c6a0 d03c
00000060: e200 833a 6952 ef3a 3619 0fbd 3cd5 66bc
00000070: c50e 0dbd 7b57 39bd c677 9fbc 25c7 883b
00000080: add8 0cbd 9cfe db3b 50a8 c1bb 577e 493d
00000090: 75ba 24bc f608 95bc 4917 debb a1ef 4dbd
000000a0: d7c2 1cbb b48b 25bd 15d7 ecba 9e72 0fbd
000000b0: 720c aebb 377b 4dbd 17d5 c43b 7f2c 46bd
000000c0: 5b6d 023d 2140 163d 684f 613c ad05 18bd
000000d0: 1fa3 533c cc06 2e3d 3ffc 173d 004d d13c
000000e0: f99d adbb c158 11bd 7265 49bd 2277 823c
000000f0: 2405 c53c 5576 283d c170 34bc 7b72 a9bc
00000100: b3f6 d23c f442 023b f9ae b5bb 6eeb 483d
00000110: 43ad d4bc 60f3 1c3c 95f8 fa3c 8b13 853b
00000120: 4847 20bd fbb8 9b3c 40d8 7a3b d94f 653d
00000130: 839f 823d fd9d ba3d 16ec 3a3d 1f29 993d
00000140: 02a2 7a3a 4fa5 6ebc 1e74 e8bc e233 f73c
00000150: 5863 113d 2729 9a3c 460d 983c 3c6d 263d
00000160: 7d6f 90bb 3800 763c fdad 87bc 5d7f 21bd
00000170: dab9 2dbd 9dec 7b3c 013f b1bd 0331 4abc
00000180: ca7b c6bd 8b7e 60bd 9281 88bd aa5d 9abd
00000190: df19 bdbc 0f75 5fbd e47f 29bd d31e 333d
000001a0: 677c 4d3d 6b90 933c 3aa8 30ba a81d 863c
000001b0: 7409 553c 008d 163d 27fc 603d 64a2 d23c
000001c0: 6b39 15bc 4e22 06bc 334e e73c 2ee5 413d
000001d0: 5be7 aa3a 0f58 06bd 7971 a7bc 7a25 2abd
000001e0: 5e09 2cbc e390 ba3c 9ef4 83bc aafc 8cbd
000001f0: d86f 363d 6a13 03bd 5fdd b73c e50f 9dbc
00000200: 1353 95bd 7ea3 62bd dab0 f63c 32ea dbbc
00000210: 174d fdbb e8c2 e03c a86c bd3c fac2 f4b9
00000220: 7aa6 b6bc a555 71bc dbd5 c9bc 40dd be3c
00000230: 33fa 073d e869 91bc 8fda 5d3d a2b5 03bd
00000240: ef5f bbba b042 70bb b841 c43c 8044 503d
00000250: fa4a c4bc 49c1 243d b7e8 83bb ff0a 7b3a
00000260: 70fb af3b 1460 71bd 732a e93c 2b6f 103d
00000270: 9a1f 4bb9 a4e2 17bd 58c8 28bc 6b36 ec3c
00000280: 91b6 3e3c 4cb2 c7bc 488c 5abd 1ad3 603c
00000290: 6215 b33c 338a 2fbd d8e3 c23c 82e3 87bd
000002a0: 3207 543c f0cb 9fba d0b7 68bd 3333 a9bd
000002b0: acdf a0bd a3ec a8bd 7ffb 07bc 145b 3f3d
000002c0: 7f0e 80bc 820e 25bd e85b 193d cb2c 863d
000002d0: f57e 043d f2be 42bd 54f8 e83b e9ff 3bbd
000002e0: 79d6 093c c52b 84bd d0a6 04bb 6812 ac3c
000002f0: 1c6a 1cbd c67a 033c 76d8 8ebb 7271 02bd
00000300: ea33 503c 0920 5c3c 3d74 7a3c 71e4 303d
00000310: 619a a53b 3402 ad3d 618f 863d d64e a33c
00000320: fc04 b1b9 c5f4 a63c a8dc a33c d7ba 17bc
00000330: aea6 a43d 540c 993d 7dae 673c 57b5 aa3d
00000340: 3867 063c 80e0 c63d c0cb 34bb 0db0 d9bc
00000350: 383d c3bc 409b e33c 66be 853c 5e5f d8bd
00000360: 0605 f2bc 633f 34bd cdbb 3ebd 70d8 12bd
00000370: 53aa b3bd b184 e8bd 03bb 11bd e8ba febd
00000380: 45ab 10be 20d8 bbbc ff85 99bd 55ac 103d
00000390: ff7b 783d 6fa6 ba3d adbb 57bd ee89 ea3c
000003a0: c8e8 32bc f1ff 313b f2b2 b3ba 1cf5 583d
000003b0: 3dd5 9dbb 180d cbbc f1b2 cebb 4ae9 203d
000003c0: a274 163d 20a6 f8bc 0562 f33b ded3 8fbd
000003d0: d1ce fd3c 5c9a 2cbd b93c 0d3d 8b39 68bd
000003e0: 89ec a7bb dc32 b8bc a88c 783d 0be8 143d
000003f0: 873b 033d 97cb 89bd 43fc eebb 20ad a9bc

fc1.bias f4 [120]
0.08860635 0.074078836 -0.093304075 0.041931268 -0.018392429 0.11647483 -0.07970371 0.17660607
0.15198609 -0.028855536 -0.02324393 -0.06890373 0.0044337884 -0.019206744 0.020006767 0.04402074
-0.19544546 0.043492377 -0.030185584 -0.034796868 0.050880767 0.11397069 -0.016738214 0.11448057
-0.06432169 0.074371584 0.038255967 0.042270336 -0.053260263 0.018844033 0.044271935 0.02715414
0.09932218 -0.030848097 0.09632132 0.021659601 0.06341604 0.011656941 -0.095834 0.14854899
-0.024773799 -0.017682415 -0.048596222 -0.018238876 0.08360821 -0.041005846 0.024183933 0.14236072
-0.037438057 0.110653624 -0.12452099 -0.0030681798 0.0156149315 0.017851753 0.03404617 0.07633571
0.09606434 -0.04252462 -0.08030724 0.1316409 0.11837821 0.090575375 -0.15650459 0.12812497
0.12291477 -0.016396895 -0.04177188 0.022435175 -0.035978574 0.031726874 -0.036404766 -0.12640819
-0.008368689 -0.007641914 0.12719926 0.121252514 0.12197967 0.07214259 0.070899785 0.16796751
0.30548477 -0.05865382 0.03424998 0.017269796 -0.04183116 0.06879805 0.06084095 0.025646918
-0.07837437 0.0045314664 -0.010686722 -0.003654143 0.020808404 0.09376027 -0.002043788 0.025468426
0.107854985 -0.057828188 -0.043419722 -0.03614464 0.08817941 0.046135545 -0.0675164 -0.03109009
0.04341978 -0.040463697 -0.029744297 0.01888884 0.03151889 -0.05027652 0.014770922 0.085163176
0.03450489 0.09542577 0.0078468835 0.034444183 0.019554382 -0.06085903 -0.031237552 -0.025852906
00000000: 3f77 b53d a5b6 973d 3516 bfbd 1fc0 2b3d
00000010: b8ab 96bc 5b8a ee3d b33b a3bd 39d8 343e
00000020: 3ea2 1b3e 7262 ecbc 0e6a bebc 661d 8dbd
00000030: 5049 913b 7657 9dbc 3be5 a33c 174f 343d
00000040: db22 48be 1025 323d c247 f7bc 2987 0ebd
00000050: 5a68 503d 7769 e93d 941e 89bc ca74 ea3d
00000060: 17bb 83bd 2150 983d 4ab2 1c3d a923 2d3d
00000070: 6f27 5abd cd5e 9a3c 7d56 353d 5c72 de3c
00000080: 6d69 cb3d 26b5 fcbc 1d44 c53d 7a6f b13c
00000090: 45e0 813d c1fc 3e3c 9e44 c4bd 3a1d 183e
000000a0: 6cf2 cabc b6da 90bc d50c 47bd b269 95bc
000000b0: c83a ab3d bff5 27bd 621d c63c 02c7 113e
000000c0: a658 19bd 5e9e e23d dc04 ffbd 8413 49bb
000000d0: c5d5 7f3c d73d 923c ff73 0b3d e655 9c3d
000000e0: 61bd c43d 4c2e 2ebd 1f78 a4bd dfcc 063e
000000f0: 4670 f23d 957f b93d bd42 20be 3133 033e
00000100: bdba fb3d c852 86bc fe18 2bbd f9c9 b73c
00000110: 455e 13bd 0af4 013d 2a1d 15bd 2671 01be
00000120: d31c 09bc 0569 fabb 8640 023e 3d53 f83d
00000130: 7ad0 f93d 7fbf 933d e833 913d adff 2b3e
00000140: 8068 9c3e fd3e 70bd b549 0c3d 6379 8d3c
00000150: 2757 2bbd fee5 8c3d 5c34 793d 7c19 d23c
00000160: be82 a0bd b27c 943b 5c17 2fbc 597a 6fbb
00000170: 6376 aa3c 6205 c03d 13f1 05bb 29a3 d03c
00000180: 13e3 dc3d 40dd 6cbd e1d8 31bd 670c 14bd
00000190: 6897 b43d a0f8 3c3d 0a46 8abd a5b0 febc
000001a0: f0d8 313d 43bd 25bd 50aa f3bc c5bc 9a3c
000001b0: f419 013d c1ee 4dbd bd01 723c 086a ae3d
000001c0: 0055 0d3d 966e c33d 3790 003c 5815 0d3d
000001d0: 8330 a03c 5147 79bd e5e5 ffbc 79c9 d3bc

fc2.weight f4 [84, 120]
-0.08969212 -0.061962668 0.018877495 -0.13713129 0.09233683 -0.14641866 0.10874001 0.019131696
-0.010971327 -0.041029457 -0.074810505 -0.05340986 0.011680856 -0.105499946 0.086001895 -0.13237102
0.17963292 0.031500436 -0.02965908 -0.08269704 -0.06669442 0.06698832 0.0009877096 -0.033731468
-0.021560594 0.06830217 -0.092504166 0.08549014 0.12270517 0.0111824935 0.002310871 -0.028712679
-0.070387244 0.13874899 -0.025550852 0.046696696 -0.029570656 0.060399175 0.058089726 0.043379482
0.065038554 -0.014700312 -0.058004595 -0.094991185 0.029512424 -0.04303916 -0.042990725 0.029795257
0.018002369 0.03861322 0.06895621 -0.047468297 0.021942286 -0.048692822 0.028008748 -0.055463266
-0.04446762 -0.06092548 0.008420483 -0.047389995 0.04285005 -0.01925687 0.10723984 -0.09766075
-0.063560255 0.059529994 -0.102313474 -0.105314456 0.058494244 0.04756195 -0.039813936 0.15318538
-0.01601533 0.016273784 0.056463063 -0.08426803 0.06707508 0.073824756 0.006144699 0.036814068
-0.09749483 -0.023002382 0.03695445 0.06099074 0.041895073 -0.08569781 -0.0833418 0.115407206
0.045463275 -0.001613954 -0.06475317 0.07242859 -0.026988957 -0.07801832 -0.013679582 -0.017391615
0.026216244 -0.016599283 -0.025211696 0.01649559 0.00085981004 -0.031686515 0.118799694 0.02924671
-0.045446627 -0.0055866814 0.064629264 0.05181457 0.058742605 0.0429485 -0.019159654 0.07655162
0.020470211 0.063525096 0.018373199 -0.12404856 -0.11121891 0.060794428 0.04802096 -0.07911453
0.060311217 0.019818494 -0.042907424 0.026161147 0.03134053 -0.010859819 -0.0917293 -0.09927888
-0.061840747 0.04554144 0.07261836 -0.017678352 0.0020024849 -0.00016354851 -0.118378356 0.14564948
-0.03933143 0.11707292 0.008426782 -0.005560288 0.062844366 0.10092801 0.024674742 -0.07355468
0.0018356877 -0.078735515 -0.049300034 0.04288878 -0.0029907043 -0.028323784 -0.01281343 0.09277966
-0.03968252 -0.07094022 0.0011391597 0.049193565 0.044520337 -0.07275047 -0.054681793 -0.1080227
-0.07883779 0.0019391543 0.02994206 -0.1129009 0.048595585 -0.07359725 -0.024131166 -0.030350493
0.06613135 0.043873176 -0.09058097 -0.10548427 -0.0921341 0.020193852 -0.054616332 0.0984365
0.051038824 -0.072565764 0.012162767 0.07596728 -0.01463866 5.332457e-05 -0.10220132 0.018487066
0.11188157 0.06080645 0.14569226 0.0014112553 0.118909016 0.014639357 0.06254878 -0.0042139906
-0.07925083 -0.057585496 -0.082875095 0.13043122 0.08939666 -0.054701377 -0.034158964 -0.0827212
0.0905099 -0.13904203 0.061321907 -0.00833881 -0.008295843 0.0796445 -0.04247019 4.745869e-05
-0.037317812 -0.020420423 -0.031109473 0.042015705 -0.083885156 -0.06773286 0.09636577 -0.041658733
-0.19676484 -0.04342475 0.087701835 -0.01200858 -0.0878445 0.056550205 0.055807203 -0.03301803
0.11166384 -0.07088742 0.04661339 0.07649056 -0.057074323 -0.042942055 -0.005013873 -0.021325653
-0.031261586 -0.05408629 -0.07082878 0.053413056 -0.14433098 0.12026384 -0.16763659 -0.015508099
0.012984158 -0.089191414 0.060210425 -0.02069958 -0.10338647 0.086051635 0.06010239 0.093179435
0.05125937 0.08359933 0.08323344 -0.037403174 -0.08785644 0.022773428 -0.009487691 0.0570338
00000000: 81b0 b7bd 91cc 7dbd faa4 9a3c 256c 0cbe
00000010: 181b bd3d c6ee 15be 15b3 de3d 13ba 9c3c
00000020: 15c1 33bc 810e 28bd 4036 99bd 4cc4 5abd
00000030: 1061 3f3c 5b10 d8bd c321 b03d 458c 07be
00000040: b1f1 373e 9a06 013d 99f7 f2bc 115d a9bd
00000050: 1697 88bd 2c31 893d 0976 813a 022a 0abd
00000060: d89f b0bc 02e2 8b3d d372 bdbd 7415 af3d
00000070: d94c fb3d c736 373c fb71 173b da36 ebbc
00000080: 3027 90bd 3714 0e3e 0550 d1bc 0945 3f3d
00000090: 293e f2bc 2065 773d 7eef 6d3d afae 313d
000000a0: ef32 853d 94d9 70bc 3a96 6dbd bd8a c2bd
000000b0: 0ac4 f13c d549 30bd 0b17 30bd 2f15 f43c
000000c0: b479 933c e528 1e3d ea38 8d3d 1e6e 42bd
000000d0: 4fc0 b33c 2072 47bd 9a72 e53c 732d 63bd
000000e0: ae23 36bd ff8c 79bd 11f6 093c 031c 42bd
000000f0: 8983 2f3d 95c0 9dbc 90a0 db3d 5c02 c8bd
00000100: e12b 82bd b9d5 733d ba89 d1bd 1baf d7bd
00000110: a997 6f3d 52d0 423d f013 23bd a1dc 1c3e
00000120: 9532 83bc 9950 853c d045 673d b894 acbd
00000130: a95e 893d 6f31 973d 7959 c93b 59ca 163d
00000140: 5fab c7bd 7e6f bcbc 8d5d 173d 6dd1 793d
00000150: 2b9a 2b3d 5582 afbd 1baf aabd 9d5a ec3d
00000160: b337 3a3d 4f8b d3ba 4f9d 84bd 7155 943d
00000170: f217 ddbc 12c8 9fbd 5320 60bc dc78 8ebc
00000180: 73c3 d63c 38fb 87bc c288 cebc c221 873c
00000190: e064 613a b8c9 01bd 414d f33d cc96 ef3c
000001a0: 3e26 3abd 7b10 b7bb 595c 843d 843b 543d
000001b0: 169c 703d c4ea 2f3d b5f4 9cbc 19c7 9c3d
000001c0: 25b1 a73c 7219 823d 6483 963c 2c0d febd
000001d0: bdc6 e3bd 9403 793d a0b1 443d cc06 a2bd
000001e0: e508 773d 655a a23c b2bf 2fbd e74f d63c
000001f0: ed5e 003d 62ed 31bc 92dc bbbd ba52 cbbd
00000200: b94c 7dbd a989 3a3d efb8 943d 31d2 90bc
00000210: 1f3c 033b 387e 2bb9 5a70 f2bd 2325 153e
00000220: fe19 21bd edc3 ef3d 7c10 0a3c 1433 b6bb
00000230: 8cb4 803d 58b3 ce3d af22 ca3c d6a3 96bd
00000240: 759b f03a 1640 a1bd d5ee 49bd 25ac 2f3d
00000250: b1ff 43bb 4807 e8bc 6cef 51bc 4303 be3d
00000260: 238a 22bd 1b49 91bd db4f 953a 317f 493d
00000270: f55a 363d 33fe 94bd 04fa 5fbd 013b ddbd
00000280: b575 a1bd 392b fe3a 0d49 f53c 9638 e7bd
00000290: 2a0c 473d 28ba 96bd b9ae c5bc 99a1 f8bc
000002a0: e06f 873d 5cb4 333d 8482 b9bd 2308 d8bd
000002b0: ceb0 bcbd 946d a53c 60b5 5fbd 1399 c93d
000002c0: 160e 513d 5c9d 94bd 5846 473c bc94 9b3d
000002d0: fdd6 6fbc d2a8 5f38 ed4e d1bd 3072 973c
000002e0: 2a22 e53d 2f10 793d 5a30 153e dff9 b83a
000002f0: 9286 f33d ead9 6f3c 9319 803d 8415 8abb
00000300: 424e a2bd c5de 6bbd 6bba a9bd c38f 053e
00000310: 9915 b73d 8d0e 60bd 45ea 0bbd bc69 a9bd
00000320: 415d b93d 0961 0ebe ae2c 7b3d 819f 08bc
00000330: 4aeb 07bc a81c a33d 39f5 2dbd 610e 4738
00000340: 90da 18bd bb48 a7bc 4bd9 febc a918 2c3d
00000350: fbcb abbd 87b7 8abd 6b5b c53d 59a2 2abd
00000360: b97c 49be 27de 31bd 059d b33d a3bf 44bc
00000370: d1e7 b3bd 30a1 673d 1896 643d ea3d 07bd
00000380: 03b0 e43d 6c2d 91bd afed 3e3d 15a7 9c3d
00000390: c4c6 69bd 02e4 2fbd 6a4b a4bb 23b3 aebc
000003a0: 260c 00bd 9689 5dbd ae0e 91bd a6c7 5a3d
000003b0: 80cb 13be e34c f63d eda8 2bbe af15 7ebc
000003c0: 81bb 543c fda9 b6bd 359f 763d 2a92 a9bc
000003d0: 49bc d3bd d73b b03d ec2d 763d dcd4 be3d
000003e0: 58f5 513d 2036 ab3d 4b76 aa3d 1234 19bd
000003f0: 14ee b3bd 578f ba3c 4372 1bbc 469c 693d

fc2.bias f4 [84]
-0.08486255 0.1864919 0.20113684 0.39883506 -0.14415579 0.0068419436 -0.080509365 0.027523173
-0.054525938 0.22956082 -0.19093613 0.112500675 0.039233226 0.28958565 -0.07593392 -0.034274142
0.006323209 0.078121275 -0.019000683 0.043794405 0.23263398 0.02047668 0.112157576 -0.009394129
-0.071183264 0.06330287 0.1475746 -0.088718444 0.22741206 -0.01522377 -0.10023122 -0.08748955
-0.1258074 0.031055532 0.1920235 -0.017256906 0.004094645 -0.041909743 0.1411923 0.016295495
-0.062342208 -0.063420705 0.12981436 0.20039847 0.23441419 0.13128322 -0.088031866 0.021147305
0.2029269 -0.025620759 -0.016949981 0.2898503 0.036331423 0.0644182 -0.10497916 0.14676186
0.16541474 0.15485466 -0.059209563 0.14435081 0.07548343 0.16445349 -0.030425519 -0.007966321
-0.059380528 -0.047450975 -0.024627589 0.03317067 0.012652556 -0.05769455 0.11362237 -0.09216374
-0.04212556 -0.00041915246 0.04145096 0.004633209 -0.051370714 0.11351489 -0.0044038366 0.14959617
0.27397567 -0.08150094 0.28419468 -0.075798325
00000000: 6bcc adbd bcf7 3e3e d1f6 4d3e 1c34 cc3e
00000010: 939d 13be 6232 e03b 18e2 a4bd 4778 e13c
00000020: 9756 5fbd fe11 6b3e c384 43be c166 e63d
00000030: 05b3 203d 9244 943e 3e83 9bbd 0b63 0cbd
00000040: ec32 cf3b 0cfe 9f3d 52a7 9bbc c361 333d
00000050: 9a37 6e3e b6be a73c dfb2 e53d d5e9 19bc
00000060: 88c8 91bd efa4 813d cc1d 173e 04b2 b5bd
00000070: b5de 683e 1f6d 79bc 0746 cdbd b92d b3bd
00000080: a8d3 00be 2c68 fe3c cfa1 443e 5b5e 8dbc
00000090: 5f2c 863b 8da9 2bbd b794 103e 217e 853c
000000a0: 8b5a 7fbd b7e2 81bd 0eee 043e 4235 4d3e
000000b0: 460a 703e 1c6f 063e 0d4a b4bd 1d3d ad3c
000000c0: 12cc 4f3e a0e2 d1bc b0da 8abc 4267 943e
000000d0: 42d0 143d b0ed 833d 50ff d6bd be48 163e
000000e0: 7b62 293e 3892 1e3e ba85 72bd b3d0 133e
000000f0: 0e97 9a3d 7f66 283e f03e f9bc 2c85 02bc
00000100: ff38 73bd f45b 42bd ccbf c9bc f8dd 073d
00000110: ab4c 4f3c 1f51 6cbd d8b2 e83d 58c0 bcbd
00000120: da8b 2cbd b1c1 dbb9 7bc8 293d 2dd2 973b
00000130: 196a 52bd 7f7a e83d 0f4e 90bb bd2f 193e
00000140: 8a46 8c3e f7e9 a6bd f781 913e 273c 9bbd

fc3.weight f4 [10, 84]
0.013768598 0.048913725 0.16414073 0.035138328 0.19459644 -0.004118396 -0.106454164 -0.005984958
-0.08822578 0.17801794 0.042835504 -0.04893116 0.29242563 0.019732343 -0.08637618 -0.082184404
-0.019939184 -0.04916281 -0.043214843 -0.048719257 0.16237828 0.108242854 -0.16255382 0.006397852
0.10461455 0.17894934 -0.19261396 0.13925754 0.19320008 -0.040896367 0.0057778503 0.115447685
0.08817974 -0.08796204 0.013526178 -0.046724293 0.056629993 -0.10017329 -0.16400723 -0.018187804
-0.09430787 0.0464854 -0.15585151 -0.125048 0.038510807 0.18405658 -0.06011371 0.041757453
0.16601847 0.22225177 0.1256405 -0.069668554 0.15680656 -0.18554667 0.08892713 0.05627471
-0.017571865 -0.033486683 0.1106581 0.28967735 0.1639212 -0.24599983 -0.09302917 0.09816828
0.022828048 -0.014299376 0.13965093 -0.11565463 0.14806113 0.027995983 0.08197844 0.05884264
-0.10567324 -0.04942193 0.0031204969 -0.10943963 0.06934015 0.0006282984 -0.1272622 -0.10600679
-0.22396196 0.1946563 -0.35352367 0.030589392 0.18428652 0.0037771459 -0.15269735 -0.053648192
0.055541262 0.06527403 0.03340945 0.015032825 0.0522411 -0.2566849 0.06748368 -0.15314403
0.23340529 -0.28525662 0.074436635 -0.020294622 -0.023513978 -0.1266506 -0.16235377 0.02161561
-0.025844183 0.07046012 0.21761611 -0.10812535 -0.04508475 -0.19051352 -0.09835725 0.47003904
0.11983637 0.035962142 0.02095705 -0.094118 0.091337405 -0.022130258 -0.19503263 0.021771962
-0.10183748 0.046549484 0.14381102 -0.117056504 0.11042204 -0.0025815712 -0.10364474 -0.11659323
0.031250816 -0.08184341 -0.014042724 0.032653198 -0.12143784 0.046752032 -0.04462944 -0.35939917
-0.10118142 0.0437347 0.1134322 0.108707935 0.22928329 -0.28469637 0.049231287 0.032692254
-0.12039473 -0.12073405 0.045369294 0.13180655 0.08252758 -0.02729328 0.0837374 0.19902001
0.1722509 0.048058968 0.13353431 0.15444072 0.007598487 0.047858678 -0.09296623 0.31135902
0.11714164 -0.09398949 0.16897601 -0.1646106 -0.28472617 -0.17646074 -0.124269016 -0.09656494
0.13798934 -0.11715464 0.109101914 0.15160848 0.010426636 -0.099597245 -0.04938346 -0.117389314
0.02803272 0.23119855 0.18162191 0.18637697 -0.03582314 0.27884522 -0.028034776 -0.07962933
0.02310415 0.1646852 0.06678628 -0.019163983 0.3380179 0.06366728 -0.117648266 -0.03274841
0.034835383 0.04191834 -0.04973844 -0.082637325 -0.16705191 0.05042453 -0.09505498 0.023423156
-0.10182282 -0.07184988 0.07121209 -0.09655027 0.07113908 -0.100613356 0.15074909 -0.1443355
0.110550374 0.05723217 0.1285659 -0.094319485 0.15321279 0.04927308 -0.039811905 -0.024596296
-0.14297532 0.1511705 -0.11558353 0.18540299 -0.16883866 0.0774456 0.089021064 -0.16451506
-0.021368718 -0.019406637 -0.051209975 0.033086047 0.25714573 -0.02619765 -0.048564695 -0.13545512
-0.14335862 -0.048032876 0.0854277 -0.15771471 -0.07731473 -0.052650936 -0.10054414 0.046677455
-0.12889136 0.08518861 0.089993514 -0.036774535 -0.10554809 0.09953024 -0.024697172 0.012385668
0.05684728 0.13125321 0.35600665 -0.026638178 -0.16872273 -0.0075443056 -0.13825975 -0.10661958
00000000: b095 613c c259 483d 8214 283e 35ed 0f3d
00000010: 4a44 473e 9cf3 86bb a404 dabd 771d c4bb
00000020: b8af b4bd 564a 363e 4874 2f3d 0a6c 48bd
00000030: d0b8 953e b9a5 a13c ffe5 b0bd 4c50 a8bd
00000040: 8057 a3bc f15e 49bd 0c02 31bd d88d 47bd
00000050: 7e46 263e 6eae dd3d 8274 26be 13a5 d13b
00000060: 2740 d63d 7f3e 373e 983c 45be 8799 0e3e
00000070: 3ed6 453e f382 27bd 1f54 bd3b d66f ec3d
00000080: 9497 b43d 7125 b4bd e79c 5d3c f961 3fbd
00000090: daf4 673d a727 cdbd 83f1 27be 97fe 94bc
000000a0: 7c24 c1bd 7a67 3e3d 8a97 1fbe 950c 00be
000000b0: 82bd 1d3d 5479 3c3e cb39 76bd dd09 2b3d
000000c0: bf00 2a3e f895 633e e7a7 003e 63ae 8ebd
000000d0: e691 203e f2ff 3dbe 6d1f b63d 4f80 663d
000000e0: dff2 8fbc 5529 09bd b7a0 e23d 9750 943e
000000f0: f6da 273e 61e7 7bbe 1486 bebd 740c c93d
00000100: e301 bb3c ee47 6abc a700 0f3e 56dc ecbd
00000110: 569d 173e d557 e53c 50e4 a73d fb04 713d
00000120: 366b d8bd a66e 4abd 4081 4c3b e221 e0bd
00000130: 3502 8e3d 64b4 243a 0651 02be 171a d9bd
00000140: 4956 65be fb53 473e 0e01 b5be 9b96 fa3c
00000150: 9bb5 3c3e fe89 773b b25c 1cbe 35be 5bbd
00000160: 3c7f 633d 64ae 853d 59d8 083d 3d4c 763c
00000170: c4fa 553d 346c 83be e234 8a3d cad1 1cbe
00000180: cc01 6f3e 280d 92be 3c72 983d e840 a6bc
00000190: 63a0 c0bc b2b0 01be 1140 26be 3813 b13c
000001a0: 2eb7 d3bc 654d 903d c2d6 5e3e d370 ddbd
000001b0: c9aa 38bd fa15 43be 876f c9bd f5a8 f03e
000001c0: c56c f53d 0a4d 133d 1fae ab3c f0c0 c0bd
000001d0: 1b0f bb3d 844a b5bc a2b6 47be 1d5b b23c
000001e0: 2b90 d0bd acaa 3e3d 3243 133e 52bb efbd
000001f0: f324 e23d 942f 29bb b243 d4bd 6ec8 eebd
00000200: db00 003d 859d a7bd 7413 66bc 5cbf 053d
00000210: 67b4 f8bd 0f7f 3f3d 5ccd 36bd 2b03 b8be
00000220: 3438 cfbd 2823 333d 244f e83d 44a2 de3d
00000230: 3dc9 6a3e b9c3 91be bfa6 493d 50e8 053d
00000240: 8391 f6bd 6a43 f7bd 27d5 393d 4cf8 063e
00000250: 3804 a93d 2896 dfbc 847e ab3d e7cb 4b3e
00000260: 8a62 303e 7bd9 443d 38bd 083e b525 1e3e
00000270: bbfc f83b 7607 443d 1465 bebd 736a 9f3e
00000280: f5e7 ef3d 907d c0bd 0c08 2d3e ae8f 28be
00000290: a1c7 91be 20b2 34be c180 febd d7c3 c5bd
000002a0: 144d 0d3e c6ee efbd d370 df3d 413f 1b3e
000002b0: 7bd4 2a3c a4f9 cbbd 5046 4abd cf69 f0bd
000002c0: e0a4 e53c 50bf 6c3e 18fb 393e 9bd9 3e3e
000002d0: 49bb 12bd cdc4 8e3e 30a9 e5bc b414 a3bd
000002e0: ea44 bd3c 3da3 283e 3fc7 883d c9fd 9cbc
000002f0: af10 ad3e fe63 823d 93f1 f0bd 3223 06bd
00000300: 8caf 0e3d 91b2 2b3d 89ba 4bbd c23d a9bd
00000310: a80f 2bbe f489 4e3d 2fac c2bd ebe1 bf3c
00000320: 7c88 d0bd 0826 93bd a5d7 913d 26bc c5bd
00000330: 5eb1 913d 600e cebd f85d 1a3e afcc 13be
00000340: 3c68 e23d 486c 6a3d c7a6 033e 932a c1bd
00000350: d0e3 1c3e 92d2 493d cf11 23bd 2c7e c9bc
00000360: 1f68 12be 71cc 1a3e 0fb7 ecbd 48da 3d3e
00000370: 0be4 2cbe cc9b 9e3d ad50 b63d a376 28be
00000380: 730d afbc abfa 9ebc 8dc1 51bd 3c85 073d
00000390: 9ba8 833e 749c d6bc c6eb 46bd bfb4 0abe
000003a0: 9acc 12be 1fbe 44bd b8f4 ae3d f77f 21be
000003b0: 2f57 9ebd 82a8 57bd 16ea cdbd dc30 3f3d
000003c0: 19fc 03be 5e77 ae3d 854e b83d e5a0 16bd
000003d0: 9929 d8bd 83d6 cb3d b951 cabc 42ed 4a3c
000003e0: b2d8 683d 3e67 063e 8146 b63e 4f38 dabc
000003f0: a7c5 2cbe 3936 f7bb f793 0dbe 5e5b dabd

fc3.bias f4 [10]
-0.28472856 -0.5567691 0.09349106 0.36227283 0.52171856 -0.12180641 0.101876624 -0.3594651
0.29322118 -0.30870995
00000000: f1c7 91be 6b88 0ebf 3e78 bf3d d37b b93e
00000010: 598f 053f a475 f9bd b1a4 d03d cf0b b8be
00000020: 1621 963e 3b0f 9ebe
