deep-learning/cnn-cifar10/cifar_net.pth (torch, 251732 bytes, 10 tensors)

conv1.weight f4 [6, 3, 5, 5]
0	0x3e183c29	0.148667
1	0xbd7b8389	-0.06140474
2	0xbde4a458	-0.111641586
3	0x3de06127	0.1095603
4	0xbe08b9e7	-0.13352166
5	0x3e9fefcf	0.31237647
6	0xbe19bf3d	-0.15014358
7	0xbe36285c	-0.17788833
8	0x3eadab3c	0.33919704
9	0xbda635cf	-0.08115732
10	0xbd9836b3	-0.07432308
11	0xbeaace28	-0.3336041
12	0x3e168133	0.14697723
13	0x3de27a41	0.11058474
14	0xbeced51e	-0.4039697
15	0xbcde37fb	-0.027126303
16	0xbf22855b	-0.63484734
17	0x3d920872	0.07130517
18	0x3d1f8d1c	0.03895293
19	0xbee0caa5	-0.43904606
20	0x3efa8e51	0.48936704
21	0xbf073fab	-0.52831525
22	0xbddd64c5	-0.10810236
23	0x3eca68e2	0.39533144
24	0x3cc4d7d9	0.024028705
25	0x3d9fb175	0.07797519
26	0xbe8681b0	-0.2627082
27	0xbaff4c1a	-0.0019477636
28	0x3dfbb08f	0.12289535
29	0xbdcbe520	-0.099558115
30	0x3e24aa03	0.1608048
31	0xbe97748d	-0.2958111
32	0xbb9806e6	-0.0046394942
33	0x3eaa0fbc	0.3321513
34	0x3c7abc01	0.015303613
35	0x3d052383	0.03250457
36	0xbdbedc95	-0.093194164
37	0x3e8b8f8e	0.2725796
38	0x3ed2a654	0.41142523
39	0xbe4b5cb1	-0.19859578
40	0x3e5fac08	0.21842968
41	0xbefac626	-0.489793
42	0x3e347303	0.17621998
43	0x3e72f6cf	0.23726963
44	0xbe1e2b0c	-0.15446109
45	0x3f17f16a	0.59352744
46	0xbebea1b5	-0.37232748
47	0x3ccda686	0.025103819
48	0x3f1b8b61	0.6075955
49	0x3dd29a7e	0.10283373
50	0x3dddfaf0	0.10838878
51	0xbe8157fb	-0.25262436
52	0xbdfee210	-0.12445462
53	0x3d2fd462	0.042927153
54	0xbe1b3401	-0.15156557
55	0x3e6353d4	0.22199947
56	0xbe22e888	-0.15909016
57	0x3d48ea83	0.049051773
58	0x3eac14a7	0.33609506
59	0xbe419211	-0.18903376
60	0x3d949c19	0.07256336
61	0xbe19d449	-0.15022387
62	0x3e182e12	0.14861324
63	0x3e332e76	0.17498192
64	0xbe790dac	-0.24321622
65	0x3dfe946c	0.12430653
66	0xbf13713c	-0.57594657
67	0x3df6ecc7	0.120568804
68	0x3e26afed	0.16278048
69	0xbea3b2f5	-0.3197247
70	0x3ee0a2e0	0.43874264
71	0xbeca0acf	-0.3946137
72	0xbe2e9339	-0.17048348
73	0x3ec464c1	0.3835812
74	0xbe108660	-0.1411376
75	0x3e0e5a2b	0.13901584
76	0x3c5585e4	0.01303241
77	0xbd518883	-0.05115558
78	0x3ca6de96	0.02036981
79	0x3e524014	0.20532256
80	0x3dc05d36	0.093927786
81	0xbe83534b	-0.25649485
82	0xbe02baf9	-0.12766637
83	0x3dfad5b9	0.122477956
84	0x3e38ee00	0.1805954
85	0x3d230ba1	0.039806012
86	0xbecf20f0	-0.40454817
87	0xbd05d82c	-0.03267686
88	0x3eb24729	0.34819916
89	0x3e28c74f	0.1648228
90	0xbe1aa23c	-0.1510095
91	0xbe64504a	-0.22296253
92	0xbde9e8bf	-0.11421346
93	0x3e99feca	0.300772
94	0x3d6c0f68	0.05763188
95	0xbc89950d	-0.016794706
96	0xbd487d3b	-0.048947554
97	0x3cdc2bef	0.026876418
98	0xbde81eeb	-0.11334022
99	0x3d5490b6	0.05189582
100	0xbc99da3d	-0.018780822
101	0xbd4ac11e	-0.049500577
102	0xbe849405	-0.2589418
103	0x3cd29f53	0.025710737
104	0x3d277902	0.040886886
105	0xbdc6c41b	-0.09705373
106	0xbeb50b61	-0.35360244
107	0xbe3f487a	-0.18679991
108	0x3dc172cb	0.09445723
109	0x3e95bf7d	0.29247656
110	0xbd6a43e8	-0.057193667
111	0xbee3e4cf	-0.44510505
112	0xbe0d1e19	-0.13781013
113	0x3eab97f2	0.33514363
114	0x3e16b6d9	0.14718188
115	0xbc6fe4b2	-0.014641928
116	0xbe8d362c	-0.27580392
117	0x3da6806d	0.08129964
118	0x3e2a6b96	0.16642603
119	0x3e51c847	0.20486556
120	0x3d3b3ee8	0.04571429
121	0xbd877131	-0.066133864
122	0xbc8fcba7	-0.017553164
123	0xbce53b6d	-0.027982438
124	0x3e89139b	0.2677277
125	0xbe011373	-0.12605076
126	0xbda77899	-0.08177299
127	0xbe048cc0	-0.12944317
128	0xbd09afe4	-0.033615008
129	0xbd0daea9	-0.034590397
130	0xbdc7cde9	-0.09756071
131	0xbe2cb7c3	-0.16866975
132	0xbe1188b3	-0.14212303
133	0x3e1d2257	0.15345131
134	0x3e16cc53	0.14726381
135	0xbd26abd6	-0.04069122
136	0xbecda6f7	-0.40166447
137	0xbd1b512e	-0.037919216
138	0x3e805ba1	0.25069907
139	0x3e759802	0.23983768
140	0x3d1fc6b9	0.039007876
141	0xbe7cd2ef	-0.2468984
142	0x3d374ee4	0.04475297
143	0x3ec127d2	0.37725693
144	0x3e94dccc	0.29074705
145	0x3d835057	0.06411808
146	0x3c8fca94	0.017552651
147	0x3e801907	0.25019094
148	0x3d3f5301	0.046710018
149	0x3df2cba5	0.11855248
150	0x3eaefd7c	0.34177768
151	0x3f2f008a	0.683602
152	0x3f0f71d5	0.5603307
153	0x3f280f7c	0.6564863
154	0x3ed5de18	0.41771007
155	0x3df1a045	0.11798147
156	0x3ea83dd0	0.3285966
157	0x3ea9c90d	0.33161202
158	0x3e8d3989	0.27582958
159	0x3e8e1b4c	0.277552
160	0xbe8dbbd8	-0.27682376
161	0xbe5c345a	-0.21504346
162	0xbed8e9ac	-0.42365777
163	0xbe779717	-0.2417873
164	0xbe4c24f1	-0.19935967
165	0xbe3751aa	-0.17902246
166	0xbe8d38dc	-0.27582443
167	0xbea5c724	-0.32378495
168	0xbdd32be1	-0.103111036
169	0xbe4a8a7f	-0.19779395
170	0xbe9ee4d9	-0.31033972
171	0xbe5e0b93	-0.21684103
172	0xbe1837da	-0.14865056
173	0xbe050e86	-0.12993822
174	0xbe9fdd15	-0.3122336
175	0xbd4049a9	-0.046945248
176	0x3e993a80	0.29927444
177	0x3e613c1e	0.21995589
178	0x3e68252f	0.22670434
179	0xbe17a0c3	-0.1480742
180	0xbcd6f51a	-0.02623992
181	0xbd8409fb	-0.06447216
182	0xbcc46330	-0.023973078
183	0xbe58e5be	-0.2118139
184	0xbea2b182	-0.31776053
185	0xbea58ff4	-0.3233639
186	0xbe99877b	-0.29986176
187	0xbf294f97	-0.6613707
188	0xbee1f8e2	-0.44135195
189	0xbeea5579	-0.45768335
190	0xbe487998	-0.19577634
191	0xbc46bf92	-0.012130635
192	0xbe21d47f	-0.15803717
193	0xbd4d6c6a	-0.05015222
194	0x3bb28932	0.005448484
195	0xbd250900	-0.040291786
196	0x3eab4a8e	0.33455318
197	0x3e063d92	0.13109425
198	0x3db1ce3c	0.08681914
199	0xbd4ad638	-0.0495207
200	0xbce00a1a	-0.027348567
201	0x3e6efffc	0.23339838
202	0x3e40e5ef	0.18837713
203	0x3e459ae7	0.19297372
204	0xbd8c7dd0	-0.06859934
205	0xbd3026a0	-0.043005586
206	0x3dfe8b5c	0.124289244
207	0xbe3c8f85	-0.18414123
208	0xbc6c198f	-0.0144103905
209	0xbe3c3747	-0.18380462
210	0xbe74de83	-0.23913006
211	0xbe7e0ffe	-0.24810788
212	0xbeff76de	-0.49895376
213	0xbea0292d	-0.31281415
214	0xbdbc4618	-0.09193057
215	0x3a548eb5	0.0008108423
216	0x3d8158d0	0.06315768
217	0xbd84140d	-0.06449137
218	0x3e36e859	0.17862071
219	0x3dd6688d	0.1046916
220	0x3e7a4ac4	0.24442583
221	0x3f06e9a6	0.5270027
222	0x3ee3a49b	0.44461522
223	0x3eac7de5	0.336898
224	0x3e9ff13d	0.31238738
225	0xbe24e5d9	-0.16103305
226	0xbe909eb8	-0.28246093
227	0xbeda775d	-0.42669192
228	0xbe972ac1	-0.29524806
229	0xbe34863e	-0.17629334
230	0xbe6b0702	-0.22951892
231	0xbe94a59f	-0.2903261
232	0xbe9174c1	-0.2840939
233	0xbead6597	-0.3386657
234	0xbe928446	-0.28616542
235	0xbb836fd0	-0.004011132
236	0x3d17ce82	0.037062176
237	0x3ca01ed2	0.019545946
238	0x3de7830c	0.11304292
239	0x3cf7e5bb	0.030260911
240	0x3e769802	0.24081424
241	0x3e94aab0	0.29036474
242	0x3ea0f6c4	0.31438267
243	0x3e8bcea9	0.27306107
244	0x3e36020f	0.17774223
245	0x3e2a1c85	0.16612442
246	0x3e9b9cbf	0.30393025
247	0x3e5c5fab	0.2152087
248	0x3e451ee2	0.19250062
249	0x3e9d9646	0.30778712
250	0x3dfeac2e	0.124351844
251	0x3c91f8a1	0.01781875
252	0xbdcfbe24	-0.10143688
253	0xbd8459c7	-0.06462436
254	0x3d0dc9b8	0.034616202
255	0xbd38b81a	-0.045097448

conv1.bias f4 [6]
0	0xbd421ffa	-0.047393776
1	0xbe005e6a	-0.12536016
2	0xbf0d99b1	-0.5531264
3	0xbe50ecf0	-0.20402884
4	0xbed04487	-0.40677282
5	0x3ea08fc8	0.31359696

conv2.weight f4 [16, 6, 5, 5]
0	0x3d9fe9eb	0.07808288
1	0xbd6f2238	-0.058382243
2	0xbe2b6367	-0.16737138
3	0x3c99d275	0.018777112
4	0x3dd21b1c	0.10259077
5	0x3d3faa6b	0.046793383
6	0xbe36749c	-0.1781792
7	0x3cd30790	0.025760442
8	0x3dad6f2b	0.08468469
9	0xbe2b5852	-0.1673291
10	0xbd0e3150	-0.034714997
11	0xbdb90220	-0.090336084
12	0x3e16e831	0.14737011
13	0x3c946443	0.018114215
14	0xbdb0d58b	-0.0863448
15	0xbdb6b616	-0.08921449
16	0x3d1ad755	0.037803013
17	0x3d295adc	0.041346416
18	0xbd89b852	-0.067246094
19	0xbda0e24c	-0.07855663
20	0xbc6d45bd	-0.014481959
21	0x3c1df214	0.009640235
22	0xbd931e40	-0.07183504
23	0xbcdf23e9	-0.027238803
24	0xbd1f1bb3	-0.038844775
25	0x3e1829ae	0.1485965
26	0x3d8bd2c7	0.06827312
27	0xbe095969	-0.13413014
28	0xbd80ecf6	-0.06295197
29	0x3cc2a4b9	0.023760187
30	0xbd1d1917	-0.038354006
31	0xbe63b4de	-0.22236964
32	0xbd98c6a8	-0.07459766
33	0x3de9b43d	0.11411331
34	0x3ccc73bd	0.024957532
35	0xbe7527a1	-0.23940898
36	0xbe262819	-0.16226234
37	0x3e575ab4	0.21030694
38	0x3d93f916	0.07225244
39	0xbc495ece	-0.01229067
40	0xbe7a7db8	-0.2446202
41	0x3da61eb3	0.08111324
42	0x3d2b7d30	0.041867435
43	0xbdd5b175	-0.10434238
44	0xbdc7ad88	-0.09749895
45	0xbdfa7394	-0.12229076
46	0xbd23aa8d	-0.03995757
47	0xbe2b46db	-0.16726248
48	0xbe42ee3e	-0.19036195
49	0xbb469a08	-0.0030304212
50	0xbcf3da04	-0.029767044
51	0xbcecb5a0	-0.0288952
52	0x3d370ce7	0.04469004
53	0x3e31cdb5	0.17363627
54	0x3d5975a6	0.053090714
55	0xbe811ae7	-0.25215837
56	0xbda9413a	-0.08264394
57	0x3e24bfa2	0.16088727
58	0x3e0da7c8	0.13833535
59	0x3c26ba97	0.010176322
60	0xbaf728f7	-0.0018856813
61	0x3e0240c3	0.12720017
62	0x3d9c373e	0.07627724
63	0xbdd9fc71	-0.106438525
64	0xbd976adf	-0.07393431
65	0x3cf4a536	0.029863935
66	0xbd6fea29	-0.058572922
67	0xbe79fbd8	-0.24412477
68	0xbdddeea7	-0.10836535
69	0xbc2540de	-0.010086266
70	0xbe3184c7	-0.17335807
71	0xbe111786	-0.1416913
72	0xbdd1482c	-0.10218844
73	0x3c6815e5	0.014165376
74	0xbe056564	-0.13026959
75	0x3d93b666	0.07212524
76	0x3e29ea07	0.1659318
77	0xbd953b41	-0.072866924
78	0x3d074bfe	0.033031456
79	0x3d844eac	0.06460318
80	0x3e22aeb0	0.1588695
81	0x3d6571df	0.0560168
82	0xbd10f6ef	-0.035391744
83	0x3d908361	0.070563085
84	0x3d2f4051	0.042785946
85	0x3e14df03	0.14538197
86	0x3cc5d915	0.024151364
87	0x3e078364	0.13233715
88	0x3e0c56e1	0.13705017
89	0x3cfd95e2	0.030955259
90	0x3d81b56e	0.06333433
91	0x3ce72060	0.02821368
92	0x3d80424d	0.06262646
93	0xbde52cb1	-0.11190165
94	0xbd3627b3	-0.044471454
95	0x3e1d795c	0.15378326
96	0x3da2c661	0.07947994
97	0xbcda95bb	-0.026682725
98	0xbc1a92e8	-0.009434439
99	0x3dfa3b8e	0.122183904
100	0xbe042e16	-0.12908205
101	0xbcf40c5b	-0.029791048
102	0x3e2c7a9e	0.1684365
103	0x3c2709d9	0.010195219
104	0x3d5c11fa	0.05372808
105	0xbe667716	-0.22506365
106	0x3e78021b	0.24219553
107	0x3e3a4fbe	0.18194482
108	0xbc9f9657	-0.019480867
109	0xbcc9d23a	-0.024636377
110	0x3d8c61dc	0.06854603
111	0x3e8ea86c	0.2786287
112	0x3bb81d34	0.0056187157
113	0xbd4d1fbd	-0.050079096
114	0x3d367127	0.044541504
115	0x3dc65872	0.09684838
116	0xbd133c6a	-0.035946287
117	0xbdbf2095	-0.093323864
118	0x3dbf3bd8	0.09337586
119	0x3cee54c9	0.029093163
120	0x3d9512af	0.07278954
121	0xbe0b9194	-0.13629752
122	0x3ca15d63	0.01969785
123	0x3c9f9618	0.01948075
124	0xbdcdf286	-0.10056023
125	0xbe760d32	-0.24028471
126	0xbe66e1c4	-0.2254706
127	0xbe6084c3	-0.21925645
128	0xbd42e31f	-0.04757988
129	0xbd995190	-0.0748626
130	0xbe9caf35	-0.30602422
131	0xbe49fa83	-0.19724469
132	0xbe016379	-0.12635602
133	0xbdb59766	-0.088667676
134	0xba813832	-0.0009858666
135	0xbe600b7b	-0.2187938
136	0xbe1de502	-0.15419391
137	0xbe5a9470	-0.21345687
138	0xbd10fc8a	-0.03539709
139	0xbe159849	-0.14608873
140	0xbe6b2af2	-0.22965601
141	0xbe1bc789	-0.15212835
142	0xbd8c973f	-0.068647854
143	0xbd78b45a	-0.06071887
144	0xbdca65c6	-0.09882693
145	0xbe61eb34	-0.22062379
146	0xbe3c9a22	-0.18418172
147	0xbe265ebc	-0.16247076
148	0xbe519608	-0.20467389
149	0xbda052d6	-0.078283
150	0xbdf14057	-0.1177985
151	0xbe02d8ae	-0.12777969
152	0xbe0cd9c9	-0.13754953
153	0xbd80ebee	-0.06295
154	0xbe5f44c6	-0.21803579
155	0xbc83a8f5	-0.016071776
156	0xbd87833e	-0.06616829
157	0x3c793e58	0.015212618
158	0x3e1fa180	0.15588951
159	0xbcc2b3a9	-0.02376731
160	0xbcfa8709	-0.030581968
161	0xbd947a94	-0.072499424
162	0xbd05dc36	-0.032680713
163	0x3e8322c7	0.2561247
164	0x3de61de1	0.11236168
165	0xbdf7d9d7	-0.121020965
166	0xbe16cb5b	-0.14726011
167	0x3d45a9d6	0.04825767
168	0x3e8929ae	0.26789612
169	0x3ddf427f	0.10901355
170	0xbdd878a7	-0.105698876
171	0x3c69574c	0.014242005
172	0x3c2a9bbb	0.010413106
173	0x3e68cd14	0.22734481
174	0x3e512caa	0.20427194
175	0xbdd69900	-0.10478401
176	0xbe5adddf	-0.213737
177	0xbdc18a71	-0.09450234
178	0x3dacd90e	0.084398374
179	0x3cbfe66d	0.023425305
180	0xbe47026d	-0.19434519
181	0xbe5f8b61	-0.21830513
182	0x3d7f439c	0.062320337
183	0x3e311dff	0.17296599
184	0x3ce0f7ed	0.02746197
185	0xbe5ce112	-0.21570233
186	0xbe4a6b4c	-0.19767493
187	0xbc0c3e7f	-0.008559822
188	0x3e78b32e	0.24287102
189	0x3e21dc37	0.15806662
190	0xbe9ef940	-0.31049538
191	0xbe825709	-0.25457028
192	0x3df4e32b	0.11957391
193	0x3e1fae2a	0.15593782
194	0x3b6238b8	0.003451867
195	0xbe765c37	-0.24058615
196	0xbe66a84e	-0.2252514
197	0x3df0f506	0.117654845
198	0x3e1d37b3	0.15353279
199	0x3dca5d41	0.09881068
200	0x3dc0f4ec	0.09421715
201	0x3dd2f1dc	0.10300037
202	0xbd91d043	-0.07119801
203	0xbd2f5f14	-0.042815283
204	0x3d47c090	0.048767626
205	0x3d1685cd	0.036748696
206	0xbce6c24a	-0.028168816
207	0xbdf3ee44	-0.1191068
208	0xbcb63a10	-0.022244483
209	0x3dffdf1c	0.124937266
210	0xbe4894bc	-0.19587988
211	0xbe4ec97a	-0.20194045
212	0xbe5b096b	-0.21390311
213	0xbe4b4a51	-0.19852568
214	0xb70f5d98	-8.545256e-06
215	0xbe7250bd	-0.23663612
216	0xbe3a13ff	-0.1817169
217	0xbe5ae2cd	-0.2137558
218	0xbdf6040a	-0.12012489
219	0xbe296316	-0.16541705
220	0xbe332466	-0.17494354
221	0xbd3dd1d6	-0.046342693
222	0xbe25de74	-0.1619814
223	0xbe12f305	-0.14350517
224	0xbe2ee225	-0.17078455
225	0xbc816b83	-0.015798336
226	0x3cdf45c5	0.027254948
227	0xbd9b9b07	-0.075979285
228	0xbe23721b	-0.15961497
229	0xbe071f69	-0.13195576
230	0x3e0c44e2	0.13698152
231	0x3dd9acad	0.106286384
232	0xbe194bc7	-0.14970313
233	0xbdc792a5	-0.09744767
234	0xbcbedeb6	-0.023299556
235	0x3dfa7920	0.12230134
236	0x3e061570	0.13094115
237	0xbdea0a6b	-0.11427768
238	0xbe16be64	-0.14721066
239	0xbcff67a5	-0.031177351
240	0xbd97d6dc	-0.07414028
241	0xbd5735a8	-0.052541405
242	0xbe4a6b6c	-0.1976754
243	0xbe1e4072	-0.15454271
244	0xbd92e278	-0.07172102
245	0xbe5b9eb9	-0.21447267
246	0xbe48fa60	-0.1962676
247	0xbe1f1159	-0.15533961
248	0xbe41fa33	-0.189431
249	0xbe7ddf2f	-0.24792169
250	0xbd141167	-0.03614941
251	0x3ca10c50	0.019659191
252	0x3d9892b1	0.07449854
253	0xbd5a938d	-0.05336337
254	0xbd898f57	-0.06716793
255	0xbe829600	-0.25505066

conv2.bias f4 [16]
0	0x3f022c75	0.50849086
1	0x3f04513e	0.51686466
2	0x3f2769de	0.65395916
3	0x3ddf1eba	0.108945325
4	0xbca6a37b	-0.020341625
5	0xbf0e03d7	-0.5547461
6	0x3db53924	0.08848789
7	0xbdab1504	-0.08353618
8	0x3e2c65f1	0.16835763
9	0xbec23874	-0.37933695
10	0x3f5e9ba8	0.8695626
11	0x3ed9e24a	0.42555457
12	0xbf00d658	-0.5032706
13	0xbf091acc	-0.53556514
14	0xbebc1c89	-0.3674052
15	0x3c3cd583	0.011525515

fc1.weight f4 [120, 400]
0	0xbd6fe696	-0.058569513
1	0x3c944bfd	0.01810264
2	0xbb9bc7bb	-0.0047540343
3	0x3bdf32e0	0.0068114847
4	0x3bbcba9e	0.005759551
5	0x3d59f1ca	0.053209104
6	0xbd370894	-0.044685915
7	0xbd1b4cc5	-0.03791501
8	0xbc507f32	-0.012725638
9	0x3d038f62	0.032119162
10	0x3dbdf3ec	0.0927504
11	0x3d22048c	0.039555117
12	0xbd116363	-0.035495173
13	0xbc727922	-0.014799388
14	0x3cf8d737	0.03037606
15	0x3cb06557	0.021532698
16	0x3da1e8bd	0.079057194
17	0x3ba87b20	0.005141631
18	0x3d970d78	0.07375616
19	0x3ce9bc57	0.02853219
20	0x3d516955	0.051125843
21	0x3cadc3f4	0.021211602
22	0xbd76f13f	-0.060288664
23	0x3d1088fa	0.03528688
24	0x3c1f62df	0.009728163
25	0xbd5bd53c	-0.053670153
26	0xbabac7b6	-0.0014250192
27	0xbce9634a	-0.028489728
28	0x3ad5b31e	0.0016303991
29	0xbd9429cc	-0.072345346
30	0xbcfdff3f	-0.0310055
31	0xbd7e419b	-0.062074285
32	0xbd3385e5	-0.043828864
33	0x3d88d277	0.06680768
34	0xbd369315	-0.044573862
35	0x3ced4096	0.028961461
36	0xbcdb392b	-0.026760658
37	0x3d268658	0.040655464
38	0x3d1c4411	0.03815085
39	0x3b509413	0.003182654
40	0x3dcbc472	0.09949578
41	0x3c551f43	0.013007942
42	0x3d5bdd40	0.053677797
43	0x3daab6c4	0.08335641
44	0x3d17d9f1	0.03707308
45	0x3e154df8	0.14580524
46	0x3d5ced01	0.053936962
47	0x3d31ff9c	0.04345666
48	0x3d5a8ca9	0.0533568
49	0x3d5a4129	0.053284798
50	0x3b1dfba0	0.002410628
51	0xbc1661f8	-0.009178631
52	0xbd25d998	-0.040490717
53	0xbc1ab78d	-0.009443176
54	0xbd6e7b9e	-0.05822336
55	0x3d2dc816	0.042427145
56	0x3a6f5449	0.0009129686
57	0xbc0597b8	-0.008153848
58	0xbcb0085a	-0.021488357
59	0x3c82b36d	0.015954698
60	0x3c856bee	0.016286816
61	0xbd8c259a	-0.068431094
62	0xbd87b291	-0.06625856
63	0xbd535e01	-0.05160332
64	0x3d0da59e	0.034581773
65	0xbc5d71ab	-0.01351587
66	0xbd1d8f21	-0.038466576
67	0xbd30aa8e	-0.043131404
68	0x3ae56c3f	0.0017503573
69	0x3b14a8ce	0.0022683623
70	0x3d0ace5f	0.033888217
71	0x3daaaaf1	0.08333386
72	0x3d38cc58	0.045116752
73	0xbcc2618f	-0.02372816
74	0x3c52431d	0.012833384
75	0xbc942f7a	-0.018089045
76	0xbbb5d284	-0.005548777
77	0x3d2c347d	0.042042244
78	0x3aca859c	0.0015451196
79	0x3d26bbd5	0.040706474
80	0xbc29e124	-0.010368619
81	0x3c4d42cf	0.012528135
82	0x3a127d19	0.0005588099
83	0xbc12fd67	-0.008971549
84	0x3cb8a1a4	0.022538014
85	0xbc8eb2a8	-0.017419174
86	0xbd611a10	-0.054956496
87	0x3d4d95b8	0.05019161
88	0xbd213613	-0.03935821
89	0xbd282056	-0.041046463
90	0xbda0cee7	-0.078519635
91	0x3c8f73ba	0.017511237
92	0x3d9f8dba	0.07790704
93	0x3c945543	0.018107062
94	0xbd1c4f99	-0.038161848
95	0xbc2ff86e	-0.010740383
96	0x3cd5fac8	0.026120558
97	0xbb147540	-0.0022652894
98	0xbd5fed5f	-0.054669734
99	0xbd20ac81	-0.039227013
100	0x3ca88cf6	0.020575028
101	0x3d659d74	0.056058362
102	0x3d30dc22	0.043178685
103	0x3d65edae	0.056134872
104	0x3bf2cc5d	0.007409616
105	0x3d6727f7	0.056434598
106	0x3d17f271	0.037096445
107	0x3d0c9da3	0.03433002
108	0xbc899ebc	-0.016799323
109	0xbc8448e4	-0.016148038
110	0xbcd99d21	-0.026564183
111	0xbd47f69e	-0.048819177
112	0xbd3b6c3b	-0.045757513
113	0xbd1890f3	-0.03724761
114	0xbd59db08	-0.0531874
115	0xbd4946aa	-0.049139656
116	0x3d161a27	0.036646035
117	0x3d8474ee	0.06467615
118	0xbc0cadd3	-0.008586365
119	0xbd19eecc	-0.03758125
120	0x3c9e0aa8	0.01929219
121	0xbc7ec2ce	-0.015549375
122	0xbbce2315	-0.006290803
123	0x3d50dbf5	0.050991017
124	0x3d16b410	0.036792815
125	0x3c8f2f6f	0.017478673
126	0xbaf17bbe	-0.0018423719
127	0x3d72df43	0.05929495
128	0x3c497c36	0.012297681
129	0x3d5d92c8	0.05409506
130	0xbd60cc2c	-0.054882213
131	0x3c8c5e25	0.017134735
132	0x3bf30695	0.007416556
133	0xbc82a923	-0.015949791
134	0xbd503b63	-0.050837886
135	0xbd5ff889	-0.05468038
136	0x3bd8fe26	0.0066220937
137	0x3cc8fe6d	0.024535382
138	0x3c977f2d	0.01849326
139	0x3a9a89d2	0.0011790341
140	0xbcd3f758	-0.025874779
141	0xbb95662a	-0.004559298
142	0xbcc272df	-0.023736415
143	0xbcef2c3e	-0.029195901
144	0x3d2ee57a	0.042699315
145	0xbd9b011f	-0.07568573
146	0xbd0b8fc0	-0.034072638
147	0xbc44b505	-0.012006049
148	0xbcf4a944	-0.029865868
149	0x3c6ff5e2	0.014646025
150	0x3ce8b626	0.028407168
151	0xbd88b31d	-0.06674788
152	0xbcb84699	-0.022494601
153	0xbc91d3a4	-0.017801113
154	0x3cd138de	0.025539812
155	0x3c71b14f	0.014751746
156	0x3d01f961	0.031731967
157	0x3bbf5e82	0.0058401236
158	0x3d41fc5d	0.047359813
159	0xbd4cb3a0	-0.04997599
160	0xbd4b2c45	-0.049602766
161	0xbcc0d350	-0.023538262
162	0x3bc695ee	0.0060603535
163	0xbcc449a5	-0.023960898
164	0xbdae44a4	-0.08509186
165	0x3a17c290	0.0005789185
166	0xbc8b427a	-0.016999472
167	0x3b4e030a	0.0031434917
168	0x3d5e8c6c	0.054333135
169	0x3b401532	0.0029309508
170	0xbd28d7e1	-0.041221503
171	0xbdba3160	-0.09091449
172	0xbcfa48f2	-0.030552361
173	0x3d10ecd0	0.035382092
174	0x3d341d86	0.04397347
175	0x3ceb34fd	0.02871179
176	0x3cdb1c49	0.026746886
177	0x3a4f3fb9	0.0007905919
178	0xbb4f1327	-0.003159711
179	0x3d2def5f	0.04246461
180	0xbd4a6225	-0.049410004
181	0xbce46d51	-0.027884157
182	0x3d1902aa	0.037356056
183	0x3c9d21d2	0.019181166
184	0xbcaaa785	-0.020831833
185	0x3c97f40e	0.018548992
186	0x3a2fab17	0.00067012146
187	0x3d33c67d	0.043890465
188	0x3d3b29d3	0.045694184
189	0x3b77dbef	0.00378203
190	0x3cbc4d56	0.022986095
191	0x3c20b6b9	0.0098091895
192	0xbc1b9903	-0.00949693
193	0x3d308d22	0.043103345
194	0x3cd5caea	0.026097734
195	0xbc0033cf	-0.007824852
196	0xbbee2b72	-0.0072683627
197	0x3ca60f5c	0.020270996
198	0x3d438943	0.047738325
199	0x3c59ca6a	0.013292888
200	0xbd3cb7f2	-0.04607386
201	0xbd6a461a	-0.05719576
202	0xbd0ec999	-0.034860227
203	0xba872b77	-0.0010312636
204	0x3d23b66a	0.039968885
205	0xbd206903	-0.039162647
206	0xbd523126	-0.051316403
207	0xbcee4da2	-0.029089753
208	0xbce5128d	-0.027962947
209	0xbd8d6dfa	-0.06905742
210	0xbd596ba1	-0.05308116
211	0xbd708ba2	-0.058726914
212	0xbd94c014	-0.072631985
213	0xbd8a2b04	-0.06746486
214	0x3d67fa04	0.056634918
215	0xbc851508	-0.01624538
216	0xbbb11fc9	-0.0054054004
217	0x3b9438c5	0.004523369
218	0xbd4ea7de	-0.05045306
219	0xbd7022bb	-0.05862687
220	0x3d0f3d5c	0.034970626
221	0x3dbbb4ba	0.0916533
222	0x3c190488	0.009339459
223	0xbc230617	-0.009950182
224	0xbb9f5ad4	-0.0048631225
225	0x3d63a0c1	0.05557323
226	0xbc7ea539	-0.015542322
227	0xbbc917e6	-0.006136882
228	0x3da05d5a	0.078303054
229	0x3dbf94a7	0.09354525
230	0x3bce488f	0.0062952708
231	0x3c9b4eef	0.018958537
232	0xbd0a3711	-0.03374392
233	0x3db46119	0.088075824
234	0xb945ba8e	-0.00018856881
235	0x3d2ee8fd	0.042702664
236	0x3c6bbb84	0.014387969
237	0xbd2c06d0	-0.041998684
238	0x3cdfad83	0.027304417
239	0xbd2e0fc2	-0.042495497
240	0x3bef3f62	0.007301257
241	0xbc55020d	-0.013000977
242	0xbd2cbdfb	-0.042173367
243	0xbcdfadb7	-0.027304513
244	0xbd02c961	-0.03193033
245	0x3d1a9ea4	0.037748948
246	0xbc0ef3a0	-0.008725077
247	0xbd5b8426	-0.053592823
248	0xbcb31132	-0.021858785
249	0xbd55129b	-0.052019697
250	0x3d1e05b8	0.038579673
251	0xbd28dbfc	-0.04122542
252	0xbd8f8b14	-0.07008949
253	0xbd5bf1f8	-0.053697556
254	0x3d1cd37c	0.038287625
255	0x3be632b1	0.007025086

fc1.bias f4 [120]
0	0xbcadcfa0	-0.021217167
1	0xbb87bb95	-0.0041422346
2	0xbde80bc4	-0.11330369
3	0xbc8c92c0	-0.01715982
4	0x3cd8a7d2	0.02644721
5	0xbd39471c	-0.04523383
6	0xbb3c29a1	-0.0028711336
7	0x3d186fcb	0.03721599
8	0x3e40212e	0.18762657
9	0x3deaea98	0.114705265
10	0x3d94fa62	0.07274319
11	0x3d3fe4d6	0.046849094
12	0xbd07a47b	-0.033115845
13	0x3d8676ce	0.06565629
14	0xbd484bec	-0.04890053
15	0x3e0bcbff	0.13652037
16	0x3d5bd5b3	0.053670596
17	0x3d945e3b	0.072445355
18	0x3d93db14	0.0721952
19	0x3bbc1288	0.005739514
20	0xbde96b4d	-0.11397419
21	0x3da2808a	0.07934673
22	0x3beae7a9	0.0071687293
23	0x3db2a710	0.08723271
24	0xbd07f9f0	-0.033197343
25	0x3c0d4639	0.008622699
26	0xbd61646d	-0.055027414
27	0x3e033902	0.12814716
28	0x3d158d66	0.0365118
29	0x3d246572	0.04013581
30	0x3e077b6b	0.13230674
31	0xbcb86870	-0.022510737
32	0x3dbfa753	0.093580864
33	0xbd2e011b	-0.042481523
34	0x3d21e770	0.039527357
35	0x3c922c0d	0.01784327
36	0x3c329666	0.010900116
37	0xbb8b0ea4	-0.0042436887
38	0x3de247d1	0.11048854
39	0x3e13f91e	0.144505
40	0x3d77e35e	0.06051957
41	0xbcbf2fd9	-0.023338245
42	0x3aa0ebf8	0.0012277355
43	0x3d05ef96	0.03269919
44	0x3e1efe42	0.15526679
45	0xba9f5186	-0.0012155033
46	0x3ca92bd2	0.020650778
47	0x3e503e4c	0.20336264
48	0xbd804b8a	-0.06264408
49	0xbd11b2a3	-0.035570752
50	0xbd5543ec	-0.05206673
51	0xbdfb1241	-0.12259341
52	0x3dc16b86	0.094443366
53	0x3e3bd310	0.18342233
54	0xbc5a2c70	-0.013316259
55	0x3c278808	0.0102253035
56	0xbcce8421	-0.025209488
57	0x3e377598	0.17915952
58	0x3cc8391b	0.024441293
59	0x3da09a02	0.07841875
60	0x3e0c0ce9	0.136768
61	0xbdf80acf	-0.121114366
62	0xbd46b903	-0.048516285
63	0x3dabf9c4	0.083972484
64	0xbda2aa50	-0.07942641
65	0x3d618612	0.0550595
66	0x3d1ca828	0.038246304
67	0xbc29d2ec	-0.010365229
68	0x3c8ec400	0.017427444
69	0xbbcdd094	-0.006280968
70	0x3ceca2af	0.028886167
71	0xbcd8863b	-0.026431194
72	0xbcfa79a4	-0.03057558
73	0x3d5e5d04	0.054287925
74	0x3d9fd116	0.07803552
75	0x3e4c89d2	0.1997445
76	0xbbd0fa6a	-0.006377508
77	0xbd78e089	-0.06076101
78	0xbd3962ad	-0.04526012
79	0xbc9ac939	-0.018894779
80	0xbc83095b	-0.015995672
81	0xbe7bc916	-0.24588427
82	0x3daa3927	0.08311682
83	0xbe03f931	-0.12888028
84	0x3ba071ba	0.0048963698
85	0x3d6e798b	0.05822138
86	0x3e41e262	0.18934014
87	0xbd8ce505	-0.068796195
88	0x3d58e5cc	0.052953526
89	0xbd8880e7	-0.06665211
90	0x3df891ca	0.12137182
91	0x3c0fe344	0.008782212
92	0xbe2a333f	-0.16621111
93	0x3d973523	0.07383182
94	0x3c0a7534	0.008450795
95	0x3af9a515	0.0019046391
96	0xbd77dad7	-0.060511436
97	0x3c5113db	0.012761082
98	0x3dc01375	0.09378711
99	0x3caf2b71	0.02138302
100	0x3d9b2284	0.07574943
101	0x3d017053	0.03160126
102	0x3d8d0c4d	0.06887112
103	0xbd2f0a85	-0.04273464
104	0xbd28dc7f	-0.041225906
105	0x3cb89c41	0.022535445
106	0x3d876137	0.06610339
107	0xbc780124	-0.015136991
108	0x3cbdb97c	0.023159735
109	0x3d61c1dd	0.055116523
110	0x3a10a3bb	0.0005517562
111	0x3dbc3b0a	0.09190948
112	0x3d33bd12	0.043881483
113	0x3db30762	0.087416425
114	0x3d44c6d4	0.04804118
115	0x3d990a9a	0.07472725
116	0xbdb7a7db	-0.08967563
117	0x3cdc57f6	0.026897412
118	0xbd1b06fc	-0.037848458
119	0x3d6989f2	0.05701632

fc2.weight f4 [84, 120]
0	0xbd1bc361	-0.038028125
1	0x3d0105e1	0.031499747
2	0x3cbf58b8	0.023357734
3	0x3d86ea56	0.06587665
4	0x3c83d089	0.016090648
5	0x3d5d959f	0.054097768
6	0xbc1c3ab3	-0.009535479
7	0x3d1c5b79	0.038173173
8	0xbcf8f7d9	-0.03039162
9	0x3d4da23d	0.05020355
10	0x3d0d0d9b	0.034436803
11	0xbd14152b	-0.036153
12	0x3cff3c23	0.031156605
13	0xbdae2229	-0.08502609
14	0x3db63a06	0.08897786
15	0xbb96159b	-0.0045802123
16	0xbd07951f	-0.033101197
17	0x3d03ca85	0.03217556
18	0x3d7aac2b	0.06119935
19	0x3d2f6c62	0.04282797
20	0x3dc574c5	0.09641413
21	0xbc3ab09c	-0.011394646
22	0x3dbff643	0.093731426
23	0xbd596678	-0.053076237
24	0x3d96b550	0.07358801
25	0xbd582c41	-0.05277658
26	0x3babacc9	0.0052391035
27	0xbb8bc0a4	-0.004264908
28	0x3d78e8de	0.060768954
29	0x3c821cf3	0.015882945
30	0x3da3c114	0.07995811
31	0x3c1708f0	0.009218439
32	0x3ce7b5a8	0.028284863
33	0xbd097b1f	-0.033564683
34	0x3d4c888f	0.04993492
35	0xbdb717ac	-0.08940062
36	0x3da1981f	0.07890343
37	0x3ab64504	0.0013906066
38	0xbd86b369	-0.065771885
39	0x3d3cd81d	0.04610454
40	0xbd09c18e	-0.033631854
41	0xbd1ad216	-0.03779801
42	0xbc8a7f15	-0.0169063
43	0x3c7cecd2	0.015437322
44	0xbda37d97	-0.07982939
45	0xbd96dd85	-0.0736647
46	0xbd53fe55	-0.05175622
47	0x3da4b6f1	0.08042706
48	0xbbdf2ff0	-0.0068111345
49	0xbd0e82db	-0.034792762
50	0xbbe82ca7	-0.007085401
51	0xbdab0900	-0.08351326
52	0x3cd1456e	0.025545802
53	0x3ca2f85c	0.019893818
54	0xbcabecc7	-0.020986928
55	0x3d493329	0.049121056
56	0xbd93eebc	-0.07223269
57	0xbdd0921c	-0.10184118
58	0xbd0d9858	-0.034569114
59	0xbc6317e6	-0.013860678
60	0xbd986bab	-0.07442411
61	0x3cf65c94	0.030073442
62	0xbd37a6d1	-0.044836823
63	0x3d2bfe9a	0.041990854
64	0xbc9d1c32	-0.019178484
65	0x3d375262	0.0447563
66	0x3d49b30c	0.049243018
67	0xbd053135	-0.03251763
68	0xbd141fc7	-0.036163118
69	0xbdb03be5	-0.08605174
70	0xbdca085a	-0.09864874
71	0xbaa8258a	-0.001282857
72	0xbcab0fe7	-0.020881606
73	0x3d8bc70a	0.06825073
74	0x3d55ae54	0.052168205
75	0xbd15521b	-0.036455255
76	0xb9dfa68b	-0.0004265796
77	0xbd78cecf	-0.060744103
78	0x3d0bfe83	0.03417827
79	0xbc187725	-0.00930575
80	0xbdaea283	-0.085270904
81	0xbd357158	-0.044297546
82	0xbdbe6466	-0.09296493
83	0x3c677c6d	0.0141287865
84	0xbd9d491e	-0.076799616
85	0xbce57ec3	-0.028014546
86	0xbdcc2c54	-0.099693924
87	0xbdbf29a1	-0.09334112
88	0xbcbb8f6d	-0.02289554
89	0xbcc0f1a9	-0.023552733
90	0x3d6d2a41	0.057901625
91	0xbc145588	-0.009053595
92	0x3db2a0ec	0.087221
93	0xbd6e438b	-0.058169883
94	0xbcc06a15	-0.023488084
95	0xbd605345	-0.054766912
96	0x3b9051e2	0.0044042924
97	0xbd067cc0	-0.032833815
98	0xbdbb58e4	-0.09147814
99	0xbd5099b5	-0.050927836
100	0xbdbe8a61	-0.093037374
101	0xbd9343f0	-0.071906924
102	0xbd19f696	-0.03758868
103	0xbd7704fe	-0.060307495
104	0x3d8d53e4	0.069007665
105	0xbda02d93	-0.078211926
106	0xbd989a8e	-0.07451354
107	0x3d8b029c	0.06787607
108	0x3dac840d	0.08423624
109	0x3d40ed5d	0.047101367
110	0x3d9384c2	0.07203056
111	0xbd628e96	-0.05531176
112	0xbd60e7b7	-0.05490848
113	0x3d989a29	0.07451279
114	0xbcaa3661	-0.020777883
115	0xbb4fb00f	-0.0031690632
116	0xbb8c4448	-0.0042806007
117	0xbbab8bf0	-0.0052351877
118	0xbd885db7	-0.066585
119	0x3de9895f	0.114031546
120	0x3d152148	0.036408693
121	0xbdd81e01	-0.10552598
122	0xbcda8d52	-0.026678715
123	0x3c0f0b81	0.00873077
124	0xbda4f814	-0.0805513
125	0xbb6ccbc4	-0.0036132196
126	0x3cd96ac9	0.026540177
127	0x3dd24aa2	0.10268141
128	0x3d997374	0.07492724
129	0xbbe70c2f	-0.007051013
130	0x3d8a8e13	0.0676538
131	0xbc59b702	-0.013288261
132	0x3b03c033	0.0020103573
133	0xbdda468f	-0.10657989
134	0x3d8631f7	0.06552499
135	0x3d1c0b85	0.038096923
136	0x3dc352e0	0.095372915
137	0x3cc372ee	0.023858514
138	0xbdb24437	-0.08704417
139	0xba8f26ce	-0.0010921599
140	0x3d903926	0.0704215
141	0xbc885e19	-0.016646432
142	0x3d6854a2	0.056721337
143	0x3e1135cb	0.14180677
144	0x3cf8d336	0.03037415
145	0xbd5cc16a	-0.05389539
146	0xbd3e220c	-0.04641919
147	0xbd0d15e4	-0.034444705
148	0x3b65512f	0.0034991016
149	0xbc88c9dc	-0.016697817
150	0xbda18231	-0.0788616
151	0xbdc1698a	-0.09443958
152	0xbcbf5316	-0.023355048
153	0xbcf30234	-0.029664136
154	0x3bc5d355	0.0060371556
155	0xbe201169	-0.15631641
156	0xbdcd7299	-0.100316234
157	0xbd4bb4e2	-0.04973305
158	0xbd3e8f10	-0.046523154
159	0x3c13731b	0.008999611
160	0x3b8fb106	0.0043851165
161	0x3c688ea5	0.014194165
162	0xbccec779	-0.0252416
163	0x3da8aa6f	0.08235633
164	0x3dd64390	0.10462105
165	0x3db6a0a9	0.08917362
166	0x3d0c5007	0.034256008
167	0xbdf95dff	-0.121761315
168	0x3d6f8d13	0.05848415
169	0xbd9a4d38	-0.075342596
170	0x3d7a0579	0.061040375
171	0xbcc616f6	-0.02418087
172	0xbbda6268	-0.006664563
173	0x3e04f63d	0.12984557
174	0xbcbe8ffe	-0.02326202
175	0x3cee1720	0.029063761
176	0xbd5f3243	-0.054491293
177	0xbd0badcc	-0.034101292
178	0x3cd8865c	0.026431255
179	0xbd6a343b	-0.057178717
180	0xbd7a54c6	-0.061116003
181	0x3c63b41b	0.013897921
182	0x3d9c2e10	0.07625973
183	0xbd1553fb	-0.036457043
184	0x3de8b089	0.113617964
185	0x3d683583	0.056691658
186	0xbdee2ba9	-0.11629421
187	0x3d964486	0.073372886
188	0x3bcad509	0.0061899466
189	0xbd319c82	-0.043362148
190	0xbcc31719	-0.023814725
191	0xbc7dd013	-0.015491503
192	0x3ced698b	0.02898099
193	0xbd1a9c91	-0.03774697
194	0x3d1e27a5	0.038612027
195	0xbdc82a55	-0.09773699
196	0x3d610b74	0.054942563
197	0x3ac86aff	0.0015290676
198	0x3dd643ed	0.104621746
199	0xbd2db416	-0.04240807
200	0xbc5f7fda	-0.013641322
201	0xbd63b129	-0.055588875
202	0xbd07a95f	-0.03312051
203	0x3d1eedfb	0.038801175
204	0x3c6f63d2	0.014611201
205	0xbd8c9342	-0.06864025
206	0x3d328dfd	0.04359244
207	0xbd3b7661	-0.04576719
208	0xbb86e32a	-0.0041164355
209	0x3cdac3b1	0.026704641
210	0x3e1c2d89	0.15251745
211	0xbc03f5c7	-0.008054203
212	0xbd9a9f9f	-0.075499766
213	0x3daf675a	0.085646346
214	0xbd4be6c9	-0.04978064
215	0x3d90bfda	0.07067843
216	0xbda7de65	-0.08196715
217	0x3d4ba881	0.049721245
218	0x3dbfe829	0.09370453
219	0xbd12cbc7	-0.03583887
220	0x3e35e8bf	0.17764567
221	0xbd8a8276	-0.06763165
222	0x3bc6539a	0.0060524466
223	0x3d5f56c7	0.054526117
224	0x39860bf3	0.00025567375
225	0xbcffd2de	-0.031228479
226	0xbde0471a	-0.109510615
227	0x3da0bfda	0.07849093
228	0xbc3f39cc	-0.011671495
229	0x3d8805c3	0.06641724
230	0x3d610ff1	0.054946844
231	0x3da2039d	0.079108454
232	0x3d82ee72	0.06393136
233	0xbbacb255	-0.0052702823
234	0xbcbc7a29	-0.02300747
235	0x3dacb47c	0.08432862
236	0x3c8962a8	0.016770676
237	0x3df6a28d	0.12042723
238	0xbbc456b9	-0.0059917835
239	0xbd5eafc1	-0.05436683
240	0x3dd08869	0.10182268
241	0xbc9e79bb	-0.019345155
242	0x3df026e4	0.11726168
243	0x3daf2753	0.085524224
244	0x3cce5e29	0.025191383
245	0x3d2bf2e0	0.04197967
246	0x3d9166f4	0.07099715
247	0xbbbff14e	-0.005857623
248	0x3d098b34	0.03358002
249	0x3d625eb8	0.055266112
250	0xbd594387	-0.053042915
251	0x3d5932ea	0.05302707
252	0x3c9556dc	0.018229894
253	0xbcc41acc	-0.023938559
254	0xbce464da	-0.027880121
255	0xbcd9b0ab	-0.0265735

fc2.bias f4 [84]
0	0xb9c504ab	-0.00037578246
1	0x3d57f05c	0.05271946
2	0x3c8d2ffa	0.017234791
3	0x3db92f25	0.09042195
4	0x3d78d987	0.060754325
5	0x3e95e862	0.29278857
6	0x3ce27e46	0.027648102
7	0xbd2122c0	-0.03933978
8	0x3e8b32c3	0.27187166
9	0xbdc216d4	-0.0947701
10	0xbdce1544	-0.1006265
11	0x3e0a7c67	0.13524018
12	0xbdb3c674	-0.08778086
13	0x3cac9065	0.021064946
14	0x3e8f8feb	0.28039488
15	0x3e11567a	0.14193144
16	0x3e40f81b	0.18844645
17	0x3e3c24be	0.18373391
18	0x3dfcf9b7	0.12352317
19	0x3e92ce6e	0.28673118
20	0xbc415e78	-0.011802308
21	0x3dcacb06	0.09902005
22	0xbd2fc20b	-0.042909663
23	0x3bd2de35	0.0064351805
24	0xbd6272e0	-0.055285335
25	0x3deecc0e	0.11660014
26	0xbd4dff2b	-0.050292175
27	0xbd78d684	-0.060751453
28	0xbd180be3	-0.03712071
29	0x3e622e2b	0.22087924
30	0xbdfe4360	-0.124151945
31	0xbe234bc9	-0.15946878
32	0x3e5d1bfa	0.21592703
33	0x3dea2635	0.11433069
34	0xbd079383	-0.033099663
35	0x3e8e4932	0.2779022
36	0x3da04d3a	0.0782723
37	0x3de19a5c	0.1101577
38	0xbdc2d649	-0.09513528
39	0x3e8f930e	0.2804188
40	0x3c165199	0.009174728
41	0xbe42d7e1	-0.19027664
42	0x3e328ec8	0.17437279
43	0xbdac814d	-0.084231
44	0xbd3af20e	-0.045640998
45	0x3dc286b0	0.09498346
46	0x3d1b3af1	0.037898008
47	0x3dc7cdd6	0.09756057
48	0xbd721d63	-0.059110057
49	0x3cf22cc4	0.029562362
50	0x3cf5b31e	0.029992636
51	0x3e7a1483	0.24421887
52	0x3e84dd1d	0.25949946
53	0x3d28343f	0.04106545
54	0x3d373a27	0.044733193
55	0x3d870668	0.06593019
56	0x3c347988	0.011015303
57	0xbe1423a6	-0.14466724
58	0x3e055463	0.13020472
59	0x3c9e7692	0.019343648
60	0x3d8ebd2c	0.069696754
61	0xbcc7d922	-0.02439553
62	0xbd32efaf	-0.04368561
63	0x3ebc15ac	0.36735284
64	0xbc38c17e	-0.011276601
65	0xbc39e3c3	-0.0113458065
66	0xbda7f9e4	-0.0820196
67	0xbe052782	-0.13003352
68	0xbd251bbc	-0.040309653
69	0x3e3509d7	0.17679535
70	0x3ce99d56	0.028517406
71	0x3d06bc3e	0.032894365
72	0x3cf3b8ef	0.02975127
73	0x3e64c87f	0.22342108
74	0x3ca76fa4	0.020438977
75	0x3dcc4fa0	0.09976125
76	0xbdb336dc	-0.08750698
77	0xbd4c2ad6	-0.04984554
78	0xbc3b5b33	-0.011435318
79	0x3dfb5485	0.1227198
80	0x3e272767	0.16323625
81	0x3e36325e	0.17792651
82	0x3db20ca5	0.08693818
83	0xbdc09ae7	-0.09404545

fc3.weight f4 [10, 84]
0	0x3ccdf699	0.025142001
1	0xbe3a71d2	-0.18207482
2	0xbdcdeed2	-0.10055317
3	0x3da57984	0.08079818
4	0x3cd3faa8	0.025876358
5	0xbe0fa708	-0.14028561
6	0x3e2ead65	0.17058332
7	0x3d55ea1f	0.05222523
8	0xbe424797	-0.18972622
9	0xbd119ff6	-0.03555294
10	0xbcc355f0	-0.02384469
11	0xbd376f8b	-0.04478411
12	0x3c405193	0.011738199
13	0x3c77184e	0.015081478
14	0x3e829229	0.25502136
15	0xbe1a23de	-0.15052745
16	0xbe808450	-0.25100946
17	0xbd8ff2a5	-0.07028703
18	0xbe686e5f	-0.22698353
19	0x3e8f4dda	0.27989084
20	0xbe0b9726	-0.13631877
21	0x3e486d89	0.19573034
22	0xbb2e1bb5	-0.0026566808
23	0x3e7f92d3	0.24958353
24	0xbd21ff5b	-0.039550167
25	0x3d99375c	0.07481262
26	0x3e3d3386	0.18476686
27	0xb9e922d6	-0.00044467178
28	0x3e159061	0.14605857
29	0x3e927f00	0.28612518
30	0x3d9c0c42	0.076195255
31	0x3dbcfcad	0.092278816
32	0xbdc37428	-0.095436394
33	0xbddb262f	-0.10700642
34	0xbe0b996f	-0.13632749
35	0xbdcdaf78	-0.10043234
36	0x3d62dc9d	0.055386174
37	0x3e709af5	0.23496611
38	0xbde06093	-0.1095592
39	0x3e8a8979	0.27058008
40	0x3d005d61	0.031339053
41	0x3e0fdac3	0.14048295
42	0x3d4280f5	0.047486264
43	0x3df50f9c	0.11965868
44	0xbd14ca1c	-0.03632556
45	0xbdba2836	-0.09089701
46	0xbdb848fd	-0.089982964
47	0xbda83fcb	-0.082152925
48	0xbe30b481	-0.17256357
49	0x3cb8f3aa	0.022577126
50	0xbcfb5059	-0.030677961
51	0x3d80d4bb	0.06290575
52	0x3d3e2a0a	0.04642681
53	0x3dd4a443	0.10382893
54	0x3d138a19	0.036020372
55	0xbd0d8bb2	-0.034557052
56	0x3e0dd488	0.13850605
57	0x3df37ed6	0.118894264
58	0x3e34957c	0.17635149
59	0x3e1a607a	0.15075865
60	0x3c1dde68	0.009635545
61	0x3d3fce90	0.046827853
62	0x3ca295d2	0.01984683
63	0xbdd6460f	-0.10462581
64	0xbe1dfcf5	-0.15428527
65	0xbd7e0b8a	-0.062022723
66	0x3d8da02e	0.069153175
67	0x3c36b9d2	0.011152701
68	0xbe0f754a	-0.14009586
69	0xbdd9f61f	-0.10642647
70	0xbca695fe	-0.020335194
71	0xbdb01634	-0.08597985
72	0xbcafd6b2	-0.02146468
73	0x3e8c9241	0.27455333
74	0x3e72fc9c	0.23729175
75	0xbe61c26a	-0.2204682
76	0x3d7789e9	0.060434256
77	0xbe2558a1	-0.1614709
78	0x3e75d84b	0.2400829
79	0xbe0fba42	-0.14035895
80	0xbd60f25a	-0.054918624
81	0x3d7ceed3	0.061751198
82	0x3c9dcb46	0.019261967
83	0x3dfab686	0.12241845
84	0xbd899089	-0.06717021
85	0xbdc3f89a	-0.09568901
86	0xbe118617	-0.14211307
87	0xbdd3a2be	-0.10333775
88	0x3e5f957e	0.2183437
89	0xbe3c486d	-0.18387003
90	0xbd3f028b	-0.046633285
91	0x3da23e1e	0.07922004
92	0xbe10181f	-0.14071701
93	0xbda821c0	-0.08209562
94	0xbdf0f026	-0.11764555
95	0xbc8bf78a	-0.01708581
96	0x3cc3bdc5	0.0238942
97	0xbe5bae3f	-0.21453188
98	0x3e31357b	0.17305557
99	0x3e3eee2a	0.1864554
100	0xbe60254a	-0.21889225
101	0xbe0d4cb2	-0.13798788
102	0xbe3be440	-0.18348789
103	0xbe397ca4	-0.18113953
104	0x3e58b766	0.21163711
105	0x3e8030c3	0.25037202
106	0xbab419f4	-0.0013740645
107	0xbe33f814	-0.17575103
108	0x3e0fac29	0.14030518
109	0x3e345606	0.1761094
110	0xbdc5a609	-0.09650809
111	0xbd9bd3b0	-0.076087356
112	0x3e979f06	0.29613513
113	0xbe2bf134	-0.1679123
114	0x3e697731	0.22799374
115	0x3d939c36	0.07207529
116	0xbe4e38fb	-0.20138924
117	0x3e52e0ed	0.20593615
118	0xbd03c993	-0.032174658
119	0xbcfe7b69	-0.031064706
120	0xbda32786	-0.07966523
121	0xbe876cf7	-0.2645032
122	0xbd4ba0f5	-0.049714047
123	0xbd83d0b3	-0.064362906
124	0xbd735626	-0.05940833
125	0x3e4341e0	0.19068098
126	0xbe456c2c	-0.19279546
127	0x3dfc0bf0	0.123069644
128	0xbd505003	-0.050857555
129	0xbd8348af	-0.06410348
130	0x3e125787	0.14291202
131	0x3d955e05	0.072933234
132	0x3cf8e996	0.03038482
133	0x3db3b642	0.08774997
134	0xbbfa4fdb	-0.007638914
135	0xbd80315e	-0.06259416
136	0x3dfeeed4	0.124478966
137	0xbe10ecd9	-0.1415285
138	0xbd57f409	-0.052722964
139	0xbc8bd0af	-0.017067282
140	0xbd839090	-0.064240575
141	0x3c0f3e9d	0.0087429555
142	0xbd2dd3c7	-0.042438295
143	0x3e35c7a3	0.17751937
144	0xbe1b1c79	-0.1514758
145	0x3c240c1e	0.010012655
146	0xbd90d7de	-0.070724234
147	0xbe81fbdc	-0.25387466
148	0xbdc03043	-0.09384205
149	0xbda34ac2	-0.07973243
150	0x3e6afd7b	0.22948258
151	0x3dfec5ba	0.12440057
152	0xbc8f3386	-0.017480623
153	0xbdf73168	-0.1206997
154	0xbbe1e99d	-0.006894304
155	0x3c68fd55	0.014220555
156	0xbd90c888	-0.07069498
157	0x3d8a4875	0.06752101
158	0x3c64c349	0.013962575
159	0x3e22415a	0.15845242
160	0x3c9f311e	0.0194326
161	0x3d6cc663	0.057806384
162	0xbe118706	-0.14211664
163	0xbe379e3e	-0.17931458
164	0x3e296f46	0.16546354
165	0xbe1af4e0	-0.15132475
166	0x3e1dccaa	0.15410104
167	0x3d3ebfad	0.046569515
168	0x3c73e42c	0.014885943
169	0xbd22341a	-0.03960047
170	0xbcce4720	-0.0251804
171	0x3e5ec2d7	0.21754013
172	0xbe4ec5c6	-0.20192632
173	0x3d91c545	0.07117704
174	0xbcb7f834	-0.02245722
175	0x3da32738	0.07966465
176	0x3e431c39	0.19053735
177	0x3c03755e	0.008023588
178	0xbbe49fa2	-0.0069770375
179	0x3ddd2ca8	0.10799533
180	0xbd3587ad	-0.044318844
181	0x3d8649ae	0.06557022
182	0xbda8805d	-0.08227608
183	0xbe03c5bf	-0.12868403
184	0x3d8c9d8f	0.068659894
185	0x3da94cca	0.082665995
186	0x3e0b7a58	0.13620889
187	0xbc2eedbd	-0.010676798
188	0x3dcc001e	0.0996096
189	0xbdd2908c	-0.102814764
190	0x3cc5f08c	0.024162553
191	0xbd149472	-0.03627438
192	0x3da509da	0.0805852
193	0x3d5eea2f	0.054422554
194	0x3da55e5d	0.08074639
195	0x3d943b5f	0.07237887
196	0x3e1cd465	0.15315397
197	0x3e4a9560	0.19783545
198	0xbddbc1be	-0.10730313
199	0xbd8ae841	-0.0678258
200	0x3ceee0a0	0.029159844
201	0xbcabe988	-0.02098538
202	0x3c7a898c	0.015291583
203	0x3e9dc60b	0.30815157
204	0xbdb610ff	-0.088899605
205	0x3e990865	0.29889217
206	0xbc48d1ae	-0.012257023
207	0x3e6daccb	0.23210447
208	0x3ca64a51	0.020299109
209	0xbd8c05a0	-0.068370104
210	0x3c29e0ba	0.01036852
211	0xbcc95a1a	-0.024579097
212	0xbd3aabea	-0.045574106
213	0x3d9fd079	0.07803435
214	0xbe043b84	-0.12913328
215	0x3db063d0	0.08612788
216	0xbdfbb697	-0.122906856
217	0xbdab35ca	-0.08359869
218	0xbd1b9897	-0.037987318
219	0x3e14cee0	0.14532042
220	0xbe4b5848	-0.19857895
221	0xbe2284c1	-0.15870954
222	0x3d376cc0	0.044781446
223	0x3d661ede	0.05618178
224	0x3dd7e74a	0.10542162
225	0xbc1070f5	-0.008815994
226	0xbd88505c	-0.06655952
227	0xbe8d6a4c	-0.2762016
228	0x3c3995d7	0.0113272285
229	0x3cd5174f	0.026012091
230	0xbdb24471	-0.087044604
231	0x3ea64be5	0.32479778
232	0x3d14ab13	0.03629596
233	0x3d82ef8d	0.06393347
234	0xbb81c90d	-0.0039607347
235	0xbde44af5	-0.111471094
236	0xbd1c4c2f	-0.03815859
237	0xbe0ea68a	-0.13930717
238	0xbd20389a	-0.03911648
239	0x3cf9fdac	0.030516468
240	0x3d153d37	0.036435332
241	0xbdfe80ee	-0.12426935
242	0x3dc5bc49	0.09655053
243	0xbe1a997d	-0.15097614
244	0xbcc47deb	-0.023985824
245	0xbddadcc4	-0.10686639
246	0x3e0dbc71	0.13841416
247	0x3e58d7ba	0.21176043
248	0xbe29000d	-0.16503926
249	0x3e11f29d	0.14252706
250	0x3e2d3df4	0.16918164
251	0xbd33de6c	-0.04391329
252	0x3d7c2a01	0.061563496
253	0x3df81d06	0.12114911
254	0x3cbc3a81	0.022977116
255	0xbdab4212	-0.08362211

fc3.bias f4 [10]
0	0xbe34400b	-0.17602555
1	0xbf1a1d47	-0.60200924
2	0x3e8a7ef2	0.27049977
3	0x3ea3ef85	0.32018676
4	0x3ea6e478	0.32596183
5	0xbe048e0f	-0.12944816
6	0x3e58d0a7	0.21173345
7	0xbec77f39	-0.3896425
8	0x3e97541a	0.29556352
9	0xbebb5d1c	-0.36594474
