deep-learning/pytorch-ddp/checkpoint.pt (torch, 1578 bytes, 1 tensors)

weight f4 [1, 20]
0	0x3d32d174	0.04365678
1	0xbe40b6a2	-0.18819669
2	0x3e6298fa	0.22128668
3	0x3dcb4e1e	0.09927009
4	0x3c93c2e4	0.018037267
5	0xbd440a9e	-0.047861688
6	0xbdab8a56	-0.08375995
7	0xbdf4b9c6	-0.11949496
8	0xbe091f6c	-0.13390893
9	0xbdde4a8c	-0.108540624
10	0xbe330675	-0.17482932
11	0xbe55c0d7	-0.20874344
12	0x3e346b47	0.17619048
13	0x3cbd6601	0.023119928
14	0x3e2f8601	0.17140962
15	0xbdfca24f	-0.123356454
16	0x3e00dfc5	0.12585361
17	0x3d9c0ddf	0.07619833
18	0xbe2eb30f	-0.17060493
19	0x3e3950e1	0.18097259
