deep-learning/pytorch-ddp/checkpoint.pt (torch, 1578 bytes, 1 tensors)

weight f4 [1, 20]
0	0xbe49571d	-0.19662137
1	0x3e48013d	0.19531722
2	0xbdf9324b	-0.12167796
3	0x3dbdabf0	0.0926131
4	0xbe2246f7	-0.15847383
5	0x3e1a45ee	0.15065739
6	0xbe18ecfb	-0.14934151
7	0x3e0f051b	0.13966791
8	0x3dfb6c88	0.1227656
9	0x3e2841fe	0.16431424
10	0xbe478dee	-0.19487736
11	0x3c808bfd	0.015691752
12	0xbd5d06a3	-0.053961407
13	0xbe3b9895	-0.18319924
14	0x3dcdc78a	0.10047825
15	0xbd85341f	-0.06504082
16	0xbcc520ec	-0.02406355
17	0xbd116b75	-0.03550287
18	0x3ddb1daa	0.10699017
19	0xbd2ab0fd	-0.041672695
